backend/model/point_history_classifier/point_history_classifier.tflite (tflite, 6532 bytes, 6 tensors)

arith.constant f4 [6, 10]
-5.149167 -2.690846 1.2510945 0.81721526 1.5491735 -2.9868174 -4.7864885 -3.1862373
-4.918459 -1.896698 -0.06564376 1.7790359 1.3605553 -1.2876259 -0.32052806 -0.45554975
-1.7584325 -0.7620336 0.9201807 0.10094646 0.79461 -1.7074842 -0.7169604 0.3410903
0.9818763 0.81228566 -0.28017253 -1.2193062 0.2620995 -0.9953891 0.65613645 -0.52981013
0.36553025 0.11741104 -0.09123199 0.5707022 0.92610955 0.75150776 0.22631627 1.2220702
0.70936966 -1.0216306 -0.4512653 -1.2371125 -0.32461375 -0.21428092 0.8436144 0.8866207
0.34354606 -2.392538 0.85684156 -0.17868055 -0.38679746 -0.3424266 -0.8521632 0.30926383
0.5864997 0.42723307 0.17488603 -0.40092596
00000000: fac5 a4c0 d236 2cc0 dd23 a03f 0535 513f
00000010: 514b c63f 0428 3fc0 ea2a 99c0 50eb 4bc0
00000020: 0464 9dc0 00c7 f2bf 3c70 86bd 73b7 e33f
00000030: ad26 ae3f edd0 a4bf 411c a4be d13d e9be
00000040: 5114 e1bf a214 43bf f690 6b3f 05bd ce3d
00000050: 906b 4b3f d88e dabf b78a 37bf 63a3 ae3e
00000060: 3f5c 7b3f f4f1 4f3f c672 8fbe 3a12 9cbf
00000070: e831 863e d2d1 7ebf 8ff8 273f a3a1 07bf
00000080: c826 bb3e 3375 f03d d6d7 babd 8a19 123f
00000090: 8415 6d3f d062 403f 74bf 673e cc6c 9c3f
000000a0: 4099 353f cbc4 82bf 3f0c e7be b459 9ebf
000000b0: c633 a6be 756c 5bbe 1df7 573f 93f9 623f
000000c0: 45e5 af3e 581f 19c0 f859 5b3f 09f8 36be
000000d0: 510a c6be 8a52 afbe 5e27 5abf d457 9e3e
000000e0: d824 163f 4bbe da3e 5315 333e 2b46 cdbe

arith.constant1 f4 [10, 24]
1.3588727 1.7368206 2.4752214 0.8609954 1.6212522 0.5014913 0.7220118 0.12340736
0.34262252 0.44674972 1.8436627 0.092631795 0.20886734 0.61256266 1.0648319 1.8373816
1.2159431 1.007394 1.9345734 1.755619 0.6734619 1.2794704 1.6811234 0.285272
0.5831577 0.14947394 -0.4184952 -1.2651482 0.25160673 -1.1611918 0.15123372 0.7772735
1.0710788 0.8306099 -0.3753568 0.6812309 0.49822906 0.03533195 -0.3056653 -0.18906267
0.013781042 0.0952119 -0.0032012528 -0.3438711 -1.9324294 0.5107705 0.16894497 -2.1245282
-0.22264777 -0.098243535 -1.2254686 0.39795518 -0.47357535 0.3060398 1.0458369 0.37277013
0.058000147 -0.07851151 -1.1311076 0.264993 0.32704735 0.45389602 0.7058065 -1.0169437
0.44182202 -0.1796021 -0.82224184 -1.4002792 0.4301452 0.2835036 -1.7190686 0.6742835
-0.11155577 0.65046704 -0.17227739 -0.010314124 -3.6166067 0.037928946 -0.07605836 0.025344795
0.5879425 0.17622481 0.12975654 0.5112395 0.47183594 -0.2516419 -0.13941453 0.17986739
-0.63943976 -0.49402982 0.48201144 -0.008085104 -0.8041713 -0.2075839 0.52842325 -0.30544162
-0.2088262 -0.23327921 0.26973233 -0.4182315 0.3647798 0.044815175 -1.3867979 1.1771767
0.9417081 0.9781742 -0.030176314 0.9111421 0.79411167 -0.42917228 -0.8140322 0.24028316
-1.0211396 -0.74387383 0.0835816 0.5682565 0.25731426 -0.34831572 0.14717567 0.15934709
0.63241595 0.74447274 0.9326578 0.083348334 1.1432009 0.4367049 -0.10171974 -0.04296753
0.46605164 0.22165301 0.7758712 0.13932098 0.2119646 0.5543537 0.19019343 1.026702
0.37621135 0.0108982865 1.2959423 1.3323243 0.30242088 1.0761273 1.5516785 0.12535472
-0.2907265 0.30529916 -0.21111548 0.45618132 0.17839848 0.4716304 0.43799743 1.2722226
-0.00018836938 -0.23522978 -1.0916046 0.023069311 -0.14514211 -0.027735172 0.18147258 -0.08393321
-0.2272421 -0.110939614 0.9452161 -0.21139747 -0.105419114 -0.36778224 0.7877812 0.013353979
0.32440576 -2.1763368 -0.36039037 0.004991101 -1.1955649 0.069340825 0.39947152 -0.86034685
0.46205643 0.5370371 0.5171354 0.5079102 0.682324 0.498936 0.057908665 0.638685
-0.076339915 -0.78000337 -0.4720275 0.49415892 -0.6649045 0.20329335 -0.2679833 0.07751531
1.3587724 1.2037936 0.8199507 1.5885451 0.8099958 1.8040583 1.6893264 0.07147673
-0.6340423 0.08047927 0.593888 0.051574823 0.08740894 1.4289371 1.9416301 1.0846627
1.6042566 2.0244577 1.257785 1.1102698 0.54758745 1.1835614 0.8488822 0.1176361
0.251326 0.08790035 0.45356438 -0.3287937 0.24969944 -0.13574643 -0.2544088 -0.06447111
-1.482862 -0.07747641 -0.12446597 -1.0584651 -1.5785328 -0.38755232 -2.0037029 -0.7362366
0.18407586 0.30685645 -0.12169109 -0.64834094 0.45947042 0.28344667 -0.40420178 0.052095667
00000000: 8aef ad3f 2350 de3f 076a 1e40 326a 5c3f
00000010: 3185 cf3f bc61 003f c4d5 383f ffbc fc3d
00000020: 386c af3e 61bc e43e 24fd eb3f bdb5 bd3d
00000030: 52e1 553e e8d0 1c3f 694c 883f 522f eb3f
00000040: 06a4 9b3f 49f2 803f 1aa0 f73f 20b8 e03f
00000050: 0068 2c3f b0c5 a33f 0d2f d73f 2c0f 923e
00000060: d349 153f b20f 193e 0145 d6be 60f0 a1bf
00000070: 99d2 803e efa1 94bf 03dd 1a3e 65fb 463f
00000080: 1c19 893f daa2 543f c42e c0be 2665 2e3f
00000090: e117 ff3e 3cb8 103d 2a80 9cbe a599 41be
000000a0: e1c9 613c 75fe c23d 1ccc 51bb df0f b0be
000000b0: d959 f7bf dbc1 023f e9ff 2c3e 45f8 07c0
000000c0: c7fd 63be e833 c9bd 28dc 9cbf c8c0 cb3e
000000d0: 7878 f2be 40b1 9c3e fcdd 853f badb be3e
000000e0: 9091 6d3d a4ca a0bd 22c8 90bf 2aad 873e
000000f0: c072 a73e 0f65 e83e bcaf 343f 362b 82bf
00000100: 7f36 e23e 9de9 37be 717e 52bf 593c b3bf
00000110: fe3b dc3e 6227 913e 710a dcbf d89d 2c3f
00000120: 5a77 e4bd 0285 263f 7c69 30be 92fc 28bc
00000130: 7c76 67c0 625b 1b3d 7cc4 9bbd e39f cf3c
00000140: 6683 163f 4774 343e e6de 043e 98e0 023f
00000150: 7b94 f13e 35d7 80be afc2 0ebe 282f 383e
00000160: 53b2 23bf 7af1 fcbe 34ca f63e 6277 04bc
00000170: 2cde 4dbf e090 54be bf46 073f d862 9cbe
00000180: 89d6 55be bfe0 6ebe 5b1a 8a3e 7022 d6be
00000190: 6bc4 ba3e 1e90 373d 9882 b1bf baad 963f
000001a0: c813 713f a069 7a3f 5134 f7bc 9c40 693f
000001b0: e74a 4b3f 78bc dbbe 6a64 50bf ca0c 763e
000001c0: b4b4 82bf 846e 3ebf d42c ab3d 4279 113f
000001d0: b2be 833e 7056 b2be 38b5 163e e22b 233e
000001e0: 03e6 213f c495 3e3f a9c2 6e3f 88b2 aa3d
000001f0: 6854 923f c997 df3e 7052 d0bd b9fe 2fbd
00000200: 529e ee3e 02f9 623e 7f9f 463f 29aa 0e3e
00000210: 400d 593e 20ea 0d3f 11c2 423e f96a 833f
00000220: c69e c03e ba8e 323c 70e1 a53f 9a89 aa3f
00000230: e9d6 9a3e 8abe 893f 679d c63f fd5c 003e
00000240: 1bda 94be 2c50 9c3e a82e 58be 9990 e93e
00000250: 17ae 363e 8a79 f13e 3341 e03e 31d8 a23f
00000260: 0585 45b9 13e0 70be b3b9 8bbf dafb bc3c
00000270: 22a0 14be df34 e3bc f3d3 393e 2de5 abbd
00000280: 27b2 68be 4f34 e3bd aff9 713f 9478 58be
00000290: fae5 d7bd f44d bcbe 07ac 493f a6ca 5a3c
000002a0: 8318 a63e 1a49 0bc0 1685 b8be 648c a33b
000002b0: 4508 99bf 9002 8e3d 8887 cc3e b13f 5cbf
000002c0: a992 ec3e 437b 093f fc62 043f 6706 023f
000002d0: c9ac 2e3f 8a74 ff3e a331 6d3d dc80 233f
000002e0: 1a58 9cbd 4dae 47bf 97ad f1be 6602 fd3e
000002f0: 2e37 2abf 222c 503e 1b35 89be 59c0 9e3d
00000300: 41ec ad3f e915 9a3f 4ae8 513f 7255 cb3f
00000310: e25b 4f3f 62eb e63f d93b d83f 6462 923d
00000320: 9950 22bf 51d2 a43d 0b09 183f 1f40 533d
00000330: 7503 b33d 69e7 b63f 5687 f83f 3ad6 8a3f
00000340: 4858 cd3f b790 0140 19ff a03f 521d 8e3f
00000350: b12e 0c3f f17e 973f 5850 593f 32eb f03d
00000360: cdad 803e 1905 b43d 9739 e83e a657 a8be
00000370: 36b1 7f3e 1d01 0bbe df41 82be 6e09 84bd
00000380: 6cce bdbf f4ab 9ebd 04e8 febd c97b 87bf
00000390: 5d0d cabf 426d c6be ab3c 00c0 007a 3cbf
000003a0: 627e 3c3e 4a1c 9d3e 2e39 f9bd acf9 25bf
000003b0: b53f eb3e ec1f 913e 89f3 cebe 4462 553d

arith.constant2 f4 [6]
0.70151865 0.19541435 0.36640918 -0.48858306 -0.80655074 -1.0925109
00000000: ba96 333f b31a 483e fc99 bb3e 8f27 fabe
00000010: 1c7a 4ebf 66d7 8bbf

arith.constant3 f4 [10]
-0.08936226 -0.1321053 1.3756917 1.1316769 1.3874339 -0.040601518 -0.40673804 -0.1653425
0.12290453 0.57529265
00000000: 9003 b7bd 9d46 07be aa16 b03f cada 903f
00000010: 6f97 b13f c74d 26bd f83f d0be 8b4f 29be
00000020: 5fb5 fb3d 6146 133f

sequential_2_1/dense_6_1/BiasAdd/ReadVariableOp f4 [24]
-0.045027837 -0.071892604 -0.13815612 -0.05148096 -0.04529111 -0.08531466 -0.16286251 0.13776325
0.12447652 -0.015577234 -0.13220909 0.19657378 0.09939876 -0.08102579 -0.02037441 -0.11819545
-0.09527488 -0.03767489 -0.18123397 -0.13455686 0.009927684 -0.04306984 -0.19312176 0.15888153
00000000: 1c6f 38bd 6e3c 93bd cc78 0dbe b3dd 52bd
00000010: 2c83 39bd 74b9 aebd 6ec5 26be cf11 0d3e
00000020: 8ced fe3d a837 7fbc d261 07be a34a 493e
00000030: 9491 cb3d d9f0 a5bd 3ce8 a6bc 7510 f2bd
00000040: 7a1f c3bd fc50 1abd 6695 39be 46c9 09be
00000050: baa7 223c 006a 30bd b6c1 45be d7b1 223e

sequential_2_1/dense_6_1/MatMul f4 [24, 32]
0.14781207 0.24772501 -0.34119195 -0.23065737 -1.5343568 -0.44613817 -0.6032909 -0.4025315
-0.99789983 -0.53653455 -0.6464909 -0.4082932 -0.88637406 -0.7871121 -0.29876143 -0.642659
0.5688165 -0.8607032 0.68727887 -0.9861597 1.1252903 -0.8384171 1.4809674 -0.42942587
1.0314271 -0.60328066 0.92452884 -0.32141462 0.8036044 -0.5406547 0.828514 -0.19916593
0.21621221 -0.02320692 0.18361923 -0.5471991 0.48766172 -1.1988685 0.35275024 -0.81096125
0.17818585 -1.5559167 0.5953648 -1.0988145 0.3237651 -1.1355691 0.08256377 -0.61260825
-0.39643255 -0.30283606 -0.3841586 -0.14809111 -0.8320179 -0.22130351 -0.9395841 -0.10153074
-0.9459754 -0.096762754 -1.2842509 0.17133783 -1.4762887 0.15514515 -1.8453561 0.044225935
0.03445822 -0.15184414 0.34437308 0.7037367 1.5500288 0.8626416 1.807672 0.4878514
1.4079783 0.120007396 1.461661 -0.18347596 0.76446706 -0.6031365 0.5066681 -0.6611126
-0.09292243 -0.65369225 -0.3162088 -0.51990944 -0.5467056 -0.37825814 -0.7478141 -0.21356872
-0.641547 -0.07140626 -0.73016983 -0.080633335 -0.48953542 -0.17070274 -0.031349577 -0.14339106
-0.26616055 -0.2002647 0.48612124 0.017857548 0.9990295 0.8333225 1.3379089 1.1232791
1.0427763 1.0888505 0.64788026 0.9745971 0.024811974 0.7598052 -0.16298193 0.7117707
-0.78219235 0.6865005 -0.91682637 0.24045248 -0.7359974 0.6128411 -0.85150975 0.56657726
-1.093844 0.5244299 -0.57303995 0.107979886 -0.12939736 0.8655161 0.16945572 1.2098656
-0.31622693 -0.068479 0.7264159 0.14468293 1.7004933 -0.556609 1.4564303 -1.0571059
1.2638156 -1.3738132 1.2654186 -1.2024437 0.67176193 -1.564848 0.032453272 -1.2447425
-0.5341044 -1.1276349 -0.6231367 -0.46549338 -0.7902496 -0.41919675 -0.71823454 0.12491088
-1.0565941 0.33526498 -0.5517706 0.49122635 -0.9009719 0.15563276 -0.8519329 0.18903174
-0.19422583 0.27684772 -0.5938847 -0.18143824 -1.0546844 0.86295193 -0.94304365 -0.028013038
-0.8213946 1.0053005 -0.6906618 0.50984776 -1.2858806 0.991632 -0.9696866 0.13335083
-0.9670787 0.20835148 -0.7740297 0.32748988 -0.5979602 0.9257836 -0.6182952 0.6519979
-0.70703626 0.89630604 -0.1598568 1.0815804 -0.7954802 1.8023009 -0.89141446 0.95132375
-0.11189224 0.12700507 0.038390543 -0.76188976 0.40004107 -1.0594091 0.6137437 -0.9618307
0.4026048 -0.7872444 0.6255743 -0.44107628 0.5389993 -0.1911082 0.8171631 0.20361297
0.6709346 0.4511063 0.5070724 0.41626105 0.5483037 0.44560328 0.1622226 0.37769824
0.08883493 0.6391947 -0.47433373 0.7203762 -0.89472324 0.63524914 -1.0230708 0.5580394
0.18408811 -0.04078749 -2.009686 0.9117403 -2.617758 0.95820665 -1.775662 0.36098203
-1.4489682 0.10241767 -0.38329747 -0.17136663 -0.08787239 -0.19217154 0.35735223 -0.4447505
0.5714355 -0.56691927 0.66642535 -0.41065937 0.7595265 -0.58108914 0.7274008 -0.11419889
0.07069588 -0.12804776 -0.38969466 0.40323994 -1.1430769 1.2945194 -1.8624369 1.1534479
00000000: 0c5c 173e a0ab 7d3e b6b0 aebe 7231 6cbe
00000010: ce65 c4bf 396c e4be 4671 1abf 9c18 cebe
00000020: 5d76 7fbf 545a 09bf 6d80 25bf ce0b d1be
00000030: 69e9 62bf 2e80 49bf 42f7 98be 4d85 24bf
00000040: f59d 113f 0b57 5cbf 82f1 2f3f f674 7cbf
00000050: 8309 903f 81a2 56bf 5790 bd3f b5dd dbbe
00000060: ce05 843f 9a70 1abf ecad 6c3f 7590 a4be
00000070: 05b9 4d3f 5968 0abf 7e19 543f 27f2 4bbe
00000080: bc66 5d3e 701c bebc ae06 3c3e 3d15 0cbf
00000090: ccae f93e 8674 99bf ae9b b43e 289b 4fbf
000000a0: 5a76 363e 4728 c7bf d469 183f f4a5 8cbf
000000b0: 8ac4 a53e 545a 91bf 3217 a93d e5d3 1cbf
000000c0: 35f9 cabe 540d 9bbe 70b0 c4be 32a5 17be
000000d0: 20ff 54bf 639d 62be 9588 70bf 59ef cfbd
000000e0: 722b 72bf 8d2b c6bd 5562 a4bf 2f73 2f3e
000000f0: 07f7 bcbf 5fde 1e3e a134 ecbf 4126 353d
00000100: 1024 0d3d 087d 1bbe ab51 b03e 1728 343f
00000110: 5867 c63f 14d6 5c3f cc61 e73f a9c7 f93e
00000120: a238 b43f 70c6 f53d b517 bb3f 1fe1 3bbe
00000130: 1db4 433f 2767 1abf 00b5 013f ad3e 29bf
00000140: 1d4e bebd 6058 27bf 1fe6 a1be c918 05bf
00000150: e6f4 0bbf 0dab c1be bf70 3fbf c2b1 5abe
00000160: 6d3c 24bf 723d 92bd 69ec 3abf 1723 a5bd
00000170: 63a4 fabe b3cc 2ebe 6a68 00bd 1bd5 12be
00000180: 3246 88be 3112 4dbe e2e4 f83e fe49 923c
00000190: 66c0 7f3f a054 553f 9940 ab3f 9cc7 8f3f
000001a0: b279 853f 745f 8b3f 7bdb 253f 327f 793f
000001b0: 7b42 cb3c 9882 423f bce4 26be 9b36 363f
000001c0: c23d 48bf 7fbe 2f3f 22b5 6abf 2d39 763e
000001d0: 536a 3cbf 28e3 1c3f 8bfc 59bf 350b 113f
000001e0: 1503 8cbf 0a41 063f bfb2 12bf 8f24 dd3d
000001f0: be80 04be 7792 5d3f cd85 2d3e e0dc 9a3f
00000200: 7fe8 a1be b83e 8cbd 64f6 393f c327 143e
00000210: c4a9 d93f ed7d 0ebf 4f6c ba3f 3f4f 87bf
00000220: b6c4 a13f 1cd9 afbf 3df9 a13f ade9 99bf
00000230: 97f8 2b3f f04c c8bf b9ed 043d b953 9fbf
00000240: 11bb 08bf 5756 90bf e385 1fbf 2655 eebe
00000250: cc4d 4abf f5a0 d6be 38de 37bf 47d1 ff3d
00000260: 7a3e 87bf daa7 ab3e d740 0dbf 0582 fb3e
00000270: 18a6 66bf 325e 1f3e 4618 5abf 8991 413e
00000280: 23e3 46be fcbe 8d3e d408 18bf f2ca 39be
00000290: e6ff 86bf 6bea 5c3f 4f6b 71bf 997b e5bc
000002a0: eb46 52bf b0ad 803f 36cf 30bf 6285 023f
000002b0: bc97 a4bf 98db 7d3f 623d 78bf 1f8d 083e
000002c0: 7892 77bf 175a 553e cf26 46bf c1ac a73e
000002d0: eb13 19bf 2700 6d3f 9848 1ebf 56e9 263f
000002e0: 5400 35bf 5074 653f 80b1 23be 3a71 8a3f
000002f0: 97a4 4bbf ccb1 e63f bd33 64bf f489 733f
00000300: c227 e5bd 9e0d 023e 673f 1d3d 350b 43bf
00000310: 2fd2 cc3e b89a 87bf 4f1e 1d3f 893a 76bf
00000320: 3722 ce3e d988 49bf a325 203f c0d4 e1be
00000330: dcfb 093f deb1 43be 9a31 513f eb7f 503e
00000340: 5fc2 2b3f 68f7 e63e 7fcf 013f 2b20 d53e
00000350: a25d 0c3f 1d26 e43e ae1d 263e aa61 c13e
00000360: 16ef b53d 44a2 233f dfdb f2be 936a 383f
00000370: 950c 65bf b09f 223f fcf3 82bf acdb 0e3f
00000380: 9881 3c3e c810 27bd b29e 00c0 d067 693f
00000390: 5989 27c0 084d 753f e448 e3bf a3d2 b83e
000003a0: ca77 b9bf 5bc0 d13d 913f c4be bc7a 2fbe
000003b0: 71f6 b3bd 9ec8 44be dff6 b63e 56b6 e3be
000003c0: 9949 123f 9f21 11bf da9a 2a3f f241 d2be
000003d0: 5470 423f 42c2 14bf f036 3a3f 1ce1 e9bd
000003e0: 00c9 903d f41e 03be 0f86 c7be 7775 ce3e
000003f0: 5850 92bf d0b2 a53f 5564 eebf 2ea4 933f
