backend/model/point_history_classifier/point_history_classifier.tflite (tflite, 6608 bytes, 6 tensors)

arith.constant f4 [6, 10]
-0.57467246 0.15052456 -0.6099826 0.2187298 -0.8012651 -0.20592104 0.14177436 -0.6173806
-0.39348888 -0.39057896 0.48192862 -0.6748724 -0.73257273 -0.009923844 -0.46073177 -0.79984367
-0.08308149 0.68099 -1.1023003 0.4223071 -0.36467257 -0.62997365 0.24014138 -0.86999094
-0.30680376 -0.037631687 0.27135757 -0.5898526 -0.009566431 -0.7479268 -0.68100023 0.34231204
0.188008 -0.75497013 -0.49639446 0.51270515 0.43024415 -0.7521589 -0.19454393 -0.021145066
-0.6357182 -0.5174945 0.5873409 0.49721837 -0.17296286 -0.39222762 -0.13815233 -0.71845716
0.35535875 0.65919024 0.53620017 -0.022586951 -0.022435699 0.1364485 0.4670639 -0.3238256
0.11354439 0.14249821 0.21666539 -0.7526315
00000000: bc1d 13bf 1c23 1a3e d227 1cbf b4fa 5f3e
00000010: b61f 4dbf f7dc 52be 4c2d 113e a80c 1ebf
00000020: 6077 c9be f7f9 c7be 59bf f63e 70c4 2cbf
00000030: e389 3bbf 9e97 22bc 09e5 ebbe 8ec2 4cbf
00000040: a126 aabd 5c55 2e3f 2d18 8dbf a338 d83e
00000050: 5db6 babe f445 21bf 9fe7 753e bab7 5ebf
00000060: 6215 9dbe af23 1abd 61ef 8a3e 9400 17bf
00000070: 85bc 1cbc 2178 3fbf 0856 2ebf 8643 af3e
00000080: 2b85 403e b945 41bf 6a27 febe a540 033f
00000090: f648 dc3e 7c8d 40bf 8636 47be 6b38 adbc
000000a0: 6ebe 22bf 857a 04bf f95b 163f 6893 fe3e
000000b0: 2d1d 31be 0fd2 c8be ce77 0dbe cfec 37bf
000000c0: 95f1 b53e b1c0 283f 6a44 093f 4508 b9bc
000000d0: 12cb b7bc 28b9 0b3e 0023 ef3e 78cc a5be
000000e0: f689 e83d 0deb 113e 88dd 5d3e 75ac 40bf

arith.constant1 f4 [10, 24]
-0.25044885 0.40220618 -0.47978526 -0.36100808 0.13744862 0.4264856 -0.2662146 -0.108831406
0.52786285 0.2502655 0.48715255 -0.07871645 -0.44363248 0.24467191 0.5985808 0.086345665
0.42108658 0.08303869 0.40861788 0.41388273 -0.21400689 0.39432934 -0.12555112 0.2582724
0.07897792 0.12187533 -0.21985376 -0.5073719 -0.46750274 -0.5020369 0.027909225 -0.046100203
0.37932393 -0.08699654 0.32481122 -0.36298138 0.20584528 0.07230282 0.39425704 -0.1013794
0.17687583 -0.24451372 0.42820376 0.17022833 0.20586076 -0.15937532 0.32095927 -0.33502862
-0.1132798 0.522739 0.63809985 0.43450576 0.42142028 0.5440726 0.17647289 0.41988444
-0.46150294 -0.43823206 0.01716454 0.20438722 0.22683157 -0.51026636 -0.21302779 0.29155707
0.2077364 0.24569601 -0.33502644 -0.18230383 0.5532883 -0.26976344 0.536052 -0.006920335
0.34638667 0.3100809 0.32244188 0.5284492 0.11048055 0.45737442 -0.03831691 0.5849146
0.46097368 0.034111768 -0.09494504 -0.0900028 0.48575255 0.09692881 0.18340775 0.3800184
0.20859286 0.39436838 0.44128507 0.15142862 0.5012096 0.04608523 0.2051461 0.09548779
-0.10447223 -0.13206942 -0.2423908 -0.19901432 0.30077147 -0.075200446 0.20722596 -0.33348477
0.30865824 0.006579926 0.066966824 0.4109954 -0.5342462 0.4139325 0.6924536 0.21991894
-0.1657397 0.42657065 0.32041377 0.5446722 0.14822808 0.021615548 0.5022034 0.29391906
-0.3379408 -0.46327016 0.2404085 -0.36173207 -0.24774948 0.10739352 0.0633611 0.2577221
0.23199089 -0.15600705 -0.33411804 0.034600634 -0.33084238 0.12056846 0.32781985 0.17315213
-0.20459236 -0.00491444 -0.26415485 0.20982225 -0.29446667 -0.17688514 0.076433904 -0.044016168
0.25373083 0.14990182 -0.1878578 -0.052550822 0.022448972 0.08123967 -0.019993478 -0.47833
-0.25280902 0.15144198 0.17603259 -0.017296774 0.23391357 0.2424496 -0.44628024 -0.28883582
-0.23130818 -0.3069798 -0.4068139 -0.029335046 -0.06317847 0.017015968 0.07512917 -0.15594853
-0.21864386 -0.014450131 -0.51377034 -0.31422937 0.5585197 0.053201545 -0.23099223 0.28063634
0.3999781 0.6156067 0.45384157 -0.29310712 -0.4203848 -0.13715045 0.053799745 -0.11438259
0.28096682 -0.19084543 0.121986225 0.6057259 -0.29932532 0.28752294 0.27979738 0.24595755
0.045314692 0.5386679 0.047563996 0.35987985 0.18975875 0.24303313 0.5954445 -0.17329949
-0.13764845 0.015188941 0.47374406 0.64384806 0.23619695 0.5648626 -0.022584599 0.6591822
-0.06030255 0.4973734 -0.016634097 -0.062434115 0.19536474 -0.076886095 0.4480427 0.11960182
0.2667953 -0.013797159 0.5935258 0.23808864 0.42412946 0.1797712 -0.07441104 0.55788046
-0.1577505 -0.07056864 0.2700611 0.018497106 0.49240583 -0.41981503 -0.13555093 -0.10009492
0.6278858 -0.21882978 -0.13261725 0.14794686 0.44109204 -0.10303478 -0.005607241 0.11065415
00000000: d53a 80be f8ed cd3e 6aa6 f5be 0dd6 b8be
00000010: 55bf 0c3e 525c da3e 484d 88be 00e3 debd
00000020: 0522 073f cd22 803e 0f6c f93e 1736 a1bd
00000030: cc23 e3be 468b 7a3e 973c 193f ffd5 b03d
00000040: a998 d73e 3010 aa3d 5d36 d13e 70e8 d33e
00000050: 9f24 5bbe 89e5 c93e 7990 00be 483c 843e
00000060: 2dbf a13d c699 f93d 5821 61be 20e3 01bf
00000070: 855c efbe 7e85 00bf e3a1 e43c 91d3 3cbd
00000080: bf36 c23e 3e2b b2bd a84d a63e b2d8 b9be
00000090: 1bc9 523e 8013 943d 0fdc c93e 01a0 cfbd
000000a0: f01e 353e ce61 7abe 863d db3e 5650 2e3e
000000b0: 2acd 523e 4933 23be c654 a43e df88 abbe
000000c0: 3dff e7bd 39d2 053f 835a 233f 8a77 de3e
000000d0: 66c4 d73e 5848 0b3f 4fb5 343e 18fb d63e
000000e0: 1d4a ecbe f45f e0be a69c 8c3c e24a 513e
000000f0: 8946 683e d1a0 02bf f523 5abe f846 953e
00000100: dab8 543e bc97 7b3e 9688 abbe dbad 3abe
00000110: 4da4 0d3f 6f1e 8abe b43a 093f fac3 e2bb
00000120: 9859 b13e ecc2 9e3e 1a17 a53e 7248 073f
00000130: a043 e23d fb2c ea3e 31f2 1cbd f7bc 153f
00000140: be04 ec3e c8b8 0b3d 8c72 c2bd 6353 b8bd
00000150: 8fb4 f83e 9d82 c63d 3ecf 3b3e c691 c23e
00000160: 5e99 553e a7ea c93e 1ef0 e13e 1b10 1b3e
00000170: 464f 003f dec3 3c3d d211 523e 1a8f c33d
00000180: 89f5 d5bd 353d 07be 4b35 78be 69ca 4bbe
00000190: b8fe 993e b102 9abd 0b33 543e 84be aabe
000001a0: 7408 9e3e 6b9c d73b e725 893d fd6d d23e
000001b0: 5cc4 08bf f6ee d33e a444 313f 6e32 613e
000001c0: abb7 29be 7867 da3e 460d a43e a36f 0b3f
000001d0: 1ac9 173e 1713 b13c 6790 003f 8f7c 963e
000001e0: 9406 adbe bf31 edbe a52d 763e f234 b9be
000001f0: 0ab2 7dbe 22f1 db3d 77c3 813d 27f4 833e
00000200: 058f 6d3e 50c0 1fbe 8511 abbe 65b9 0d3d
00000210: 2c64 a9be 99ec f63d 01d8 a73e cb4e 313e
00000220: a980 51be 5009 a1bb 4e3f 87be a5db 563e
00000230: 56c4 96be 6121 35be 6189 9c3d 4c4a 34bd
00000240: 02e9 813e dd7f 193e cc5d 40be 883f 57bd
00000250: e8e6 b73c fc60 a63d 5dc9 a3bc abe7 f4be
00000260: 2f70 81be 9b13 1b3e e341 343e f7b1 8dbc
00000270: 0a87 6f3e b544 783e d87e e4be 4ae2 93be
00000280: 0ddc 6cbe 752c 9dbe e949 d0be 0d50 f0bc
00000290: b763 81bd 1265 8b3c 53dd 993d f9b0 1fbe
000002a0: 2de4 5fbe 3ec0 6cbc 7486 03bf ace2 a0be
000002b0: 26fb 0e3f dde9 593d 3a89 6cbe 91af 8f3e
000002c0: eec9 cc3e 6798 1d3f ec5d e83e 2312 96be
000002d0: ad3c d7be 2b71 0cbe 1f5d 5c3d 6b41 eabd
000002e0: e2da 8f3e fc6c 43be ead3 f93d da10 1b3f
000002f0: 2b41 99be 3536 933e 9a41 8f3e 4cdc 7b3e
00000300: e69b 393d 24e6 093f 77d2 423d 2c42 b83e
00000310: 1e50 423e addd 783e 0d6f 183f 6c75 31be
00000320: b7f3 0cbe 09db 783c 958e f23e 3ad3 243f
00000330: 9ddd 713e d69a 103f 5603 b9bc 2ac0 283f
00000340: cfff 76bd baa7 fe3e 3b44 88bc eaba 7fbd
00000350: b20d 483e 7576 9dbd da65 e53e cdf1 f43d
00000360: 6599 883e 7b0d 62bc 4ff1 173f 82cd 733e
00000370: 7f27 d93e f115 383e d164 98bd 41d1 0e3f
00000380: 5989 21be 4b86 90bd 7345 8a3e 3e87 973c
00000390: 9e1c fc3e fff1 d6be ddcd 0abe 91fe ccbd
000003a0: 20bd 203f ea14 60be d1cc 07be 627f 173e
000003b0: d1d6 e13e e603 d3bd f2bc b7bb a59e e23d

sequential_3_1/dense_10_1/BiasAdd/ReadVariableOp f4 [10]
0.24613696 -0.11487798 -0.039914712 0.19297954 0.19366775 -0.08357322 -0.08000711 0.31960967
-0.07593752 0.38377833
00000000: 540b 7c3e 2545 ebbd 9c7d 23bd 6e9c 453e
00000010: d750 463e 7028 abbd c5da a3bd e1a3 a33e
00000020: 2185 9bbd 987e c43e

sequential_3_1/dense_11_1/BiasAdd/ReadVariableOp f4 [6]
-0.17851269 0.28486565 -0.17396599 -0.15899813 0.0852352 0.13858697
00000000: 08cc 36be e9d9 913e 2424 32be 68d0 22be
00000010: cb8f ae3d bee9 0d3e

sequential_3_1/dense_9_1/BiasAdd/ReadVariableOp f4 [24]
-0.119269885 0.1193195 0.005090561 -0.043101147 0.30859315 0.16223016 -0.09794793 0.2655615
0.21624643 0.24516189 0.23118857 -0.19773446 0.00027079246 -0.08881849 0.17882653 0.06873149
0.31290895 0.11978587 0.2403304 0.2458608 -0.023384048 0.22232929 0.08105265 0.34600326
00000000: c543 f4bd c85d f43d b9ce a63b d48a 30bd
00000010: ecff 9d3e aa1f 263e ed98 c8bd adf7 873e
00000020: b46f 5d3e b80b 7b3e b2bc 6c3e e77a 4abe
00000030: 26f9 8d39 78e6 b5bd 4d1e 373e 18c3 8c3d
00000040: 9a35 a03e 4b52 f53d 2c19 763e efc2 7b3e
00000050: e78f bfbc 4aaa 633e effe a53d 5727 b13e

sequential_3_1/dense_9_1/MatMul f4 [24, 32]
-0.120993525 -0.13376404 0.10282168 0.06487148 0.03203064 -0.10888543 0.06982556 0.26271063
-0.122362256 -0.16137113 0.032720532 0.2747457 0.0033731312 0.3197251 0.25793996 -0.043393645
-0.14085138 0.098725565 0.1279708 -0.070319355 -0.18388392 -0.15076 -0.13210213 -0.3094542
-0.15275343 -0.30390427 0.17327678 -0.14516155 -0.37438735 -0.24629368 -0.27888408 -0.21619852
-0.07969354 -0.1361833 0.058680624 0.07411221 0.06674729 0.3727981 -0.0997383 0.41182715
-0.004384318 -0.14389555 -0.05662934 0.5550432 0.2209841 0.2656421 -0.060036313 -0.062094036
0.40108073 -0.006070183 0.30717525 0.48621392 0.13729751 0.33647043 -0.22565186 0.0763403
-0.2285017 0.27395603 0.107919015 0.32801414 0.28743082 0.3926637 0.46728653 0.23426327
-0.28783226 -0.17383423 -0.23630233 0.2678371 -0.39248353 -0.29310235 -0.044602834 0.1470106
0.055430923 0.17793158 0.111213915 0.11942037 0.11514549 0.020500991 -0.37647095 -0.22163874
-0.46893102 -0.37894198 0.009855092 0.23067077 0.2040852 -0.47856683 -0.1729168 0.3498702
-0.093713306 -0.30377197 0.15359043 0.34537798 0.2708428 -0.10590875 0.18495682 0.19530205
-0.11525378 -0.22944151 -0.2783575 0.07610954 -0.06461206 -0.36840555 -0.32212898 0.29117715
0.08024721 -0.22887988 -0.078630686 -0.062144298 0.04905076 -0.38480636 -0.14437011 0.32395527
-0.24949254 -0.13970573 -0.08303552 0.2501712 0.16009445 -0.30812407 0.16858074 0.40707004
0.22297144 0.060815748 0.36245963 0.16328856 -0.10958773 -0.08379724 0.29395872 0.13757342
-0.011622369 -0.18510981 0.14614557 0.1405327 -0.20839715 0.12736438 0.07635666 0.008446072
-0.1120232 -0.19496362 -0.35921076 0.26405087 0.3867571 0.1360298 0.019226568 0.39421555
0.3248813 0.37943482 0.13991557 0.27691406 0.23541184 0.29844275 -0.18097429 0.50773966
0.13330811 0.33435896 -0.4908648 0.15094818 -0.034289166 -0.18249105 -0.20890024 -0.122922465
-0.17445116 -0.020069063 0.013573523 -0.046044193 0.2308654 -0.13269126 0.11288507 0.4993355
0.17142527 0.26679406 -0.2342526 0.4725186 0.25238866 0.04310477 0.015733385 -0.049166504
0.22890532 0.43010825 -0.11725044 0.3883021 -0.13523248 -0.22582 -0.23473862 0.41757837
-0.18775916 0.1853119 -0.23899779 0.043980595 -0.4301773 0.02467039 -0.09706647 0.074460074
0.18270272 -0.24159059 -0.22524823 -0.51413715 -0.36194888 0.08855786 0.06721279 -0.14519216
-0.13821517 -0.2691253 0.07682823 -0.10513163 -0.273381 0.028060913 0.056302603 -0.3120364
-0.096632816 -0.055894025 -0.43309435 -0.27162245 0.28645685 -0.252317 -0.015196329 -0.2679832
0.06999375 -0.0077634472 0.057729322 -0.066134736 0.0337002 -0.052920915 0.22475904 0.06964628
0.19680214 0.00048276782 -0.076267906 0.072378576 0.07768284 -0.4754115 -0.53676766 0.01786321
0.10517368 -0.091584444 -0.17420843 0.23002468 0.19479479 -0.0969522 0.021580061 0.36960953
-0.29922643 -0.4692842 0.22118412 0.2504904 0.13105647 -0.3237545 -0.1366364 0.33268812
0.15834473 -0.3678535 0.22938384 0.23294133 -0.36097437 -0.33540282 -0.04499465 0.2011767
00000000: 74cb f7bd 71f9 08be 2c94 d23d 57db 843d
00000010: 8f32 033d 53ff debd b400 8f3d 0282 863e
00000020: 1099 fabd 793e 25be f705 063d 78ab 8c3e
00000030: c00f 5d3b 02b3 a33e b510 843e 89bd 31bd
00000040: 583b 10be a130 ca3d c70a 033e 9803 90bd
00000050: 114c 3cbe d460 1abe c845 07be c870 9ebe
00000060: 656b 1cbe 5799 9bbe 786f 313e 3ba5 14be
00000070: b3af bfbe 6934 7cbe e5c9 8ebe 2563 5dbe
00000080: 5e36 a3bd a373 0bbe 185b 703d 24c8 973d
00000090: ceb2 883d 64df be3e 9843 ccbd 02db d23e
000000a0: 53aa 8fbb 5b59 13be 2bf4 67bd 5017 0e3f
000000b0: a849 623e 3e02 883e a3e8 75bd 5156 7ebd
000000c0: 745a cd3e 63e8 c6bb 1346 9d3e 08f1 f83e
000000d0: b897 0c3e da45 ac3e 4811 67be 4e58 9c3d
000000e0: 5afc 69be f743 8c3e a504 dd3d 78f1 a73e
000000f0: 222a 933e 370b c93e 2e40 ef3e b6e2 6f3e
00000100: c05e 93be 9a01 32be 3df9 71be f221 893e
00000110: 9af3 c8be 8311 96be 76b1 36bd f289 163e
00000120: 890b 633d b233 363e 1fc4 e33d ab92 f43d
00000130: 66d1 eb3d b2f1 a73c cdc0 c0be 44f5 62be
00000140: ba17 f0be af04 c2be 4077 213c f534 6c3e
00000150: b6fb 503e b606 f5be 1a11 31be 3022 b33e
00000160: c3ec bfbd 0088 9bbe cf46 1d3e 62d5 b03e
00000170: e8ab 8a3e b0e6 d8bd 5265 3d3e 43fd 473e
00000180: 2c0a ecbd b7f2 6abe e084 8ebe 52df 9b3d
00000190: 5453 84bd a79f bcbe 17ee a4be 2c15 953e
000001a0: a658 a43d 7d5f 6abe 2009 a1bd 058b 7ebd
000001b0: 73e9 483d 5705 c5be c2d5 13be 77dd a53e
000001c0: f97a 7fbe 050f 0fbe 870e aabd 7116 803e
000001d0: cdef 233e 70c2 9dbe 6ea0 2c3e 7c6b d03e
000001e0: a052 643e ef19 793d 4f94 b93e 1e35 273e
000001f0: 886f e0bd e39d abbd c281 963e 0ce0 0c3e
00000200: c06b 3ebc 6d8d 3dbe 2fa7 153e cee7 0f3e
00000210: 1066 55be cf6b 023e e160 9c3d 6561 0a3c
00000220: 6b6c e5bd 8ba4 47be 79ea b7be ad31 873e
00000230: 0705 c63e 654b 0b3e 0981 9d3c 9fd6 c93e
00000240: d756 a63e 4845 c23e 0746 0f3e aec7 8d3e
00000250: cd0f 713e 7dcd 983e 5351 39be 3afb 013f
00000260: ec81 083e 1931 ab3e a252 fbbe 2992 1a3e
00000270: cc72 0cbd efde 3abe f2e9 55be c6be fbbd
00000280: 53a3 32be e067 a4bc 7b63 5e3c d698 3cbd
00000290: fb67 6c3e 38e0 07be 4a30 e73d e7a8 ff3e
000002a0: 1b8a 2f3e 3b99 883e eadf 6fbe f5ed f13e
000002b0: 1639 813e a18e 303d 4de3 803c d162 49bd
000002c0: 2866 6a3e 2637 dc3e 0021 f0bd 88cf c63e
000002d0: 627a 0abe 5c3d 67be 525f 70be d5cc d53e
000002e0: f043 40be 67c2 3d3e d6bb 74be ff24 343d
000002f0: 3340 dcbe 8f19 ca3c c9ca c6bd 867e 983d
00000300: 6c16 3b3e 8663 77be 79a7 66be 7e9e 03bf
00000310: 5d51 b9be d35d b53d dca6 893d 41ad 14be
00000320: 4788 0dbe cbca 89be 1e58 9d3d 414f d7bd
00000330: 98f8 8bbe 00e0 e53c 8f9d 663d 3cc3 9fbe
00000340: 6de7 c5bd 22f1 64bd 8bbe ddbe 1912 8bbe
00000350: 79aa 923e b22f 81be 06fa 78bc 1835 89be
00000360: e258 8f3d 8464 febb 9575 6c3d a671 87bd
00000370: 3909 0a3d 9ac3 58bd 3c27 663e b5a2 8e3d
00000380: 8086 493e 001c fd39 5932 9cbd 383b 943d
00000390: 2e18 9f3d 2369 f3be 9b69 09bf de55 923c
000003a0: 4c65 d73d a090 bbbd b263 32be 978b 6b3e
000003b0: 4978 473e e08e c6bd abc8 b03c 763d bd3e
000003c0: 3534 99be 0546 f0be 177e 623e 4740 803e
000003d0: ab33 063e 26c3 a5be 6aea 0bbe 1956 aa3e
000003e0: 1f25 223e 4b57 bcbe 99e3 6a3e 2c88 6e3e
000003f0: a2d1 b8be ebb9 abbe 4f4c 38bd 4401 4e3e
