backend/model/keypoint_classifier/keypoint_classifier.tflite (tflite, 7540 bytes, 6 tensors)

arith.constant f4 [26, 10]
000000 2a 06 4e 3e 99 3b 2c bd 3c fa 11 3e 44 f8 0e bf
       0.20119539 -0.042049024 0.14255613 -0.55847573
000010 ac 5b 88 be 66 dd 15 3f 3c 7f 5f bf e3 71 5f bd
       -0.2663244 0.5854095 -0.8730352 -0.05455197
000020 08 50 8d be a4 75 34 bc dd f7 01 3f e0 27 80 bf
       -0.27600121 -0.011014376 0.50768834 -1.0012169
000030 ae ea d4 be 3c 91 d4 3e d3 15 23 3e a7 68 d1 be
       -0.41585296 0.41517055 0.15926294 -0.40900156
000040 3e eb 90 bd f2 ec 09 3e 29 85 38 3e 08 3a 8d be
       -0.07076119 0.13469294 0.18019547 -0.27583337
000050 c1 2a cb 3e 5e 92 d0 bf 99 26 b9 3d bd 49 c2 3e
       0.39681056 -1.6294668 0.09040565 0.37946883
000060 9f 12 9f be d2 15 c2 3d aa aa 3d be 4f 70 79 3d
       -0.31068894 0.09476818 -0.18522134 0.06089812
000070 aa e7 1a 3d 4c 98 8e bd 38 0c 1c 3d b9 2e 5a 3e
       0.03781859 -0.06962642 0.03809759 0.21306886
000080 89 73 ab bf ff b9 62 3e 2a 8e ef 3e 40 23 cf bd
       -1.3394634 0.22141264 0.4678815 -0.10114145
000090 77 f8 2f 3e 9a 6d bd bf f3 0f 15 3e 4b 2d 20 be
       0.17184626 -1.4799073 0.14556865 -0.15642278
0000a0 2f 45 fd 3e 16 bc 0a bf 8a d6 81 be 71 c3 e4 3b
       0.49466845 -0.54193246 -0.25358993 0.0069813062
0000b0 7d d7 1b 3e 4e 04 52 bd 92 32 ee be f6 f8 c3 3c
       0.15218921 -0.051273637 -0.46522957 0.023922425
0000c0 e8 9b b1 3d 1b 9d 07 be 22 81 1d 3f f1 45 b6 be
       0.08672315 -0.13243525 0.61525166 -0.35600236
0000d0 b3 70 cc be a7 8b de bc a6 1f 34 3f e0 30 ef ba
       -0.39929733 -0.0271662 0.7036079 -0.0018248819
0000e0 c8 66 dd be 38 33 1f bf 6a d3 9c bd b6 fb 4b bf
       -0.43242478 -0.6218753 -0.076575115 -0.79680955
0000f0 d8 41 06 bf 6c 49 12 bf 95 65 04 3f 02 e5 37 bf
       -0.5244422 -0.5714328 0.517175 -0.71833813
000100 1b 7d 3a bf 29 3c 7d 3d d2 93 99 bd f4 f1 19 3f
       -0.72847146 0.06182495 -0.074988976 0.60134816
000110 3f 80 9b 3d 1a 66 04 bf ce 4b e3 be 85 f7 78 bf
       0.075928204 -0.51718295 -0.44393772 -0.97252685
000120 48 08 09 3f 64 61 23 bf 3f d0 31 bf 76 62 7c 3e
       0.5352826 -0.6382048 -0.69458383 0.24646935
000130 bd 68 f5 bc 79 79 e4 3e 19 8e 10 be 51 a7 f4 be
       -0.02995717 0.44623926 -0.14116706 -0.47783902
000140 45 36 c2 3e 50 9b 85 be 07 80 8f be 62 d8 1d bf
       0.3793203 -0.26095057 -0.28027365 -0.616583
000150 07 87 02 3d 88 6a d8 3e 37 4a 84 bf 17 e3 8e bd
       0.031867053 0.42268777 -1.0335149 -0.06976908
000160 f9 0f 20 be 3f 35 f2 bd 4a a5 b9 3e 8a 97 b2 be
       -0.15631093 -0.11826562 0.36258918 -0.3488124
000170 32 46 ca bd 5a 41 00 bf 15 37 c6 3b 39 0b 77 3e
       -0.0987667 -0.5009972 0.0060490468 0.24125375
000180 42 49 76 bf a2 2d 42 ba 95 ed ee 3c d8 96 1b 3c
       -0.9620553 -0.00074073125 0.029166022 0.009496413
000190 f3 70 5d bf a1 92 f6 3e e1 24 a6 bd 91 c1 21 3e
       -0.8650047 0.48158744 -0.08112503 0.15796496
0001a0 1c 06 ef 3e 63 4b 8e bf db f6 3a 3d bb 48 ff be
       0.4668435 -1.1116756 0.045645576 -0.49860176
0001b0 06 8c be 3e ba 19 c1 3e 3e 50 90 3d ae 0b b9 3e
       0.37216204 0.3771494 0.07046555 0.36141723
0001c0 9c c8 63 be 87 b1 65 be fd b0 2f bf d0 3c 41 3f
       -0.22244495 -0.22431003 -0.6862944 0.7548342
0001d0 c0 9e 8b 3c 07 04 73 bf a5 40 20 be 04 b4 db be
       0.017043471 -0.9492802 -0.1564966 -0.4291078
0001e0 bc 98 03 bf 14 3a 3e be 4d 4b 08 bf ba fc e7 3d
       -0.5140493 -0.18576843 -0.532399 0.11327501
0001f0 ec b9 06 3f 14 c2 37 bf 55 8b d1 be 7a ec d2 3e
       0.52627444 -0.71780515 -0.40926614 0.41196042
000200 56 b5 5c bf 6f 8b 98 3e 98 ac 20 bf 52 f4 8d 3e
       -0.86214197 0.2979388 -0.6276336 0.27725464
000210 01 59 60 bf c4 a5 55 be 8d 8e 56 3d 11 39 32 bf
       -0.8763581 -0.20864016 0.05238204 -0.69618326
000220 67 8d 62 be b9 de ae 3e 5b 6a 6d bf 02 6d 9e 3e
       -0.22124253 0.341543 -0.9274041 0.3094254
000230 8a 33 bf 3e 8a 31 3c bf b4 92 8f 3d da 23 97 bb
       0.3734401 -0.7351309 0.07010403 -0.004612428
000240 13 ac f6 3a 31 9f d5 3c a0 f5 98 be 79 56 0f 3e
       0.0018819593 0.026076885 -0.29874897 0.1399783
000250 37 92 2b 3e a0 a8 d1 3c 85 8a 1f bf 11 d5 b5 3d
       0.16754995 0.025593102 -0.6232074 0.0887853
000260 7a c6 15 3f 5c b9 3a bf 24 02 78 bf f7 c6 60 3e
       0.58505976 -0.72939086 -0.96878266 0.21950899
000270 a4 a7 bd 3e a2 c4 a9 bf 15 8c 89 be eb 01 00 3d
       0.37041962 -1.3263133 -0.26864687 0.03125183
000280 e8 bc 8e be 94 51 08 bf 90 81 ed 3e 17 fc 2c bf
       -0.278785 -0.5324948 0.4638791 -0.6757216
000290 de 35 3b bf ac e1 b1 3e 81 68 e3 3e 7d 97 92 bf
       -0.7312907 0.34742486 0.44415668 -1.145248
0002a0 f6 1d b0 3e 98 b8 3a bd 61 e8 8e bb 66 68 60 bd
       0.34397858 -0.0455862 -0.004361198 -0.054787062
0002b0 dd fe bf be e4 19 02 3f ba f7 6e be 75 8e 0e bf
       -0.37499133 0.50820756 -0.23336688 -0.5568612
0002c0 ea ad bc 3e c8 1b 05 bd b6 a5 53 bf e9 fb d7 be
       0.36851436 -0.032497197 -0.8267473 -0.4218438
0002d0 92 bd 07 be 3c 44 70 be 01 ac b1 be ba 88 30 be
       -0.13255909 -0.2346353 -0.3470154 -0.17239657
0002e0 1f 57 0c be ed ed 48 3e 5b 98 54 bf 3d c9 bf 3e
       -0.13705109 0.19622011 -0.83044976 0.3745822
0002f0 8a 1e 98 be 64 36 ed 3d 90 f7 e8 bd 4d b1 86 bd
       -0.297108 0.1158264 -0.11375344 -0.06576786
000300 64 97 44 bf 48 79 86 be 9c c5 f6 bd 0f 7c ad 3e
       -0.76793504 -0.26264405 -0.1204941 0.33883712
000310 e2 a0 87 bf ef a0 92 3d 75 8c b3 be 27 7e e3 3e
       -1.0595973 0.07159602 -0.35068098 0.44432184
000320 b6 61 ed be 9f 95 63 3e 3e 82 97 be b2 30 37 3f
       -0.4636361 0.22225045 -0.29591554 0.7155868
000330 96 7a 0b bf 7f 8e 2e bf fa 17 c5 3e a1 f1 2e 3d
       -0.54483926 -0.6818618 0.38494855 0.042710904
000340 2d 3e 9b bf b7 19 76 bf 5c cb dd bf 9a 1a 89 3e
       -1.212835 -0.9613299 -1.7327685 0.26778108
000350 84 a9 d1 be d5 0a 0e 3f 65 0d 1d 3f 8b 78 5e bf
       -0.40949643 0.5548528 0.61348563 -0.86902684
000360 8f c5 c6 3e f2 4c 7a bf ce 9d 14 be ec 64 1f bf
       0.388226 -0.9777366 -0.14513323 -0.6226337
000370 d7 c8 9e 3e 0c a8 52 be 29 bb f1 be 3b 8a 6d 3f
       0.31012604 -0.20571917 -0.47213104 0.9278905
000380 cc 6c 53 3e 2f c6 0c bf 72 5f 0b bb 56 0a 99 be
       0.20646971 -0.54989904 -0.0021266607 -0.29890698
000390 b6 ff f1 be c6 35 7b bf a1 e2 11 bf ca c6 33 3f
       -0.47265404 -0.98128927 -0.56986433 0.70225203
0003a0 63 c0 d9 be 7f f7 98 be e6 3e 1a be 8e d6 0f bf
       -0.42529592 -0.29876325 -0.15063056 -0.5618676
0003b0 8f 00 93 3d 01 99 8b bf 4e fc 4e 3f cf f0 df 3e
       0.07177841 -1.0906068 0.80853736 0.4373841
0003c0 2a 2e 43 be aa 4b 13 3d 43 4f 99 be cc 25 cf be
       -0.19060579 0.03596083 -0.29943284 -0.40458524
0003d0 58 a9 da 3e e7 c2 43 3f 2c 68 c0 bf 85 66 95 bf
       0.42707324 0.7646927 -1.5031791 -1.1671911
0003e0 d7 e7 9f 3e 59 96 cf bd 3c 79 4e bf 45 34 9e 3e
       0.31231567 -0.101360984 -0.8065374 0.30899253
0003f0 fe e0 b7 bd a3 e6 ae be 4b aa 97 be 83 64 81 bc
       -0.08978461 -0.34160337 -0.2962211 -0.015794998

arith.constant1 f4 [10, 20]
000000 73 59 cc 3d a8 8a 31 bc 49 7a a6 be a7 9a ff 3d
       0.099779986 -0.010836281 -0.3251517 0.124806695
000010 98 7e 1b 3f 5d b1 bb be 3c aa a6 be a0 9d 56 3f
       0.6074004 -0.36658755 -0.32551754 0.83834267
000020 32 d7 e2 bd 81 cb 22 3d 77 53 44 bf 12 83 67 3d
       -0.110762015 0.039744858 -0.7668986 0.056521483
000030 1c 14 8b 3f 9c d2 9b 3e 31 89 aa 3f 48 04 00 3f
       1.0865512 0.3043412 1.3323117 0.5000653
000040 5b 72 3a bd e1 50 14 3f d6 dd be be 33 89 d5 3e
       -0.045519214 0.5793591 -0.37278622 0.41706237
000050 5c 71 46 3e 18 8e 5d 3e 20 46 80 3f a6 63 9b 3f
       0.1937918 0.21636236 1.00214 1.2139785
000060 ca d6 33 3d 4d c5 4c 3f 55 10 83 3e fd db 1b 3e
       0.04390601 0.7998856 0.25598398 0.15220638
000070 a3 b0 a9 be c0 18 36 3d a6 8d ca be 43 19 94 3f
       -0.33142576 0.044457197 -0.39561194 1.1570209
000080 8f 3f 8a 3e e4 75 6b 3f e7 98 22 be a0 36 a7 bd
       0.27001616 0.9197676 -0.1587864 -0.08164716
000090 e2 a4 39 be e0 59 19 be 9c ab 3b be aa 90 7f 3d
       -0.18129304 -0.14975691 -0.18327183 0.06239382
0000a0 bb da a6 3e b5 f5 7d be 22 ae 5b be 64 6b af 3e
       0.32588753 -0.24800761 -0.21453145 0.3426162
0000b0 33 f5 94 3e 0c ec f7 3e 46 f5 35 3f aa 60 32 3f
       0.29093322 0.48422277 0.7107738 0.6967875
0000c0 aa 8f 80 3f 41 59 7a 3f 2f 15 a0 3f 19 96 93 3b
       1.0043843 0.9779244 1.2506465 0.004503977
0000d0 4e d0 ec bd b6 3a 23 3d 32 d9 ce 3d f1 8b 54 3f
       -0.115631685 0.039850913 0.101000205 0.83026034
0000e0 a5 00 9c 3d 58 0c 7f 3e 49 77 ac 3f 63 4f 86 3f
       0.076173104 0.24907053 1.3473903 1.0492977
0000f0 da 33 78 3d c6 41 9e 3f cd 6f 8a be 49 ce 7f 3f
       0.060596325 1.2363822 -0.27038422 0.9992414
000100 e1 94 e6 3e 4b e8 b0 be 05 d9 80 bf 4d 83 d1 3e
       0.4503546 -0.34552225 -1.0066229 0.40920487
000110 40 ba 07 be c5 fc 25 bf 78 9f db be 62 f1 0b 3f
       -0.13254642 -0.6483882 -0.42895103 0.54665196
000120 3e ff f8 3c 5b db fb be 7c 32 eb 3e 23 1e c5 3d
       0.030395146 -0.49190792 0.45936954 0.09624889
000130 ae 72 6c 3f f6 a7 0d be 38 37 64 bf ae 36 3b bf
       0.9236249 -0.13833603 -0.8914676 -0.7313031
000140 bd 26 15 bf 1e ef c1 3f 3a 0a 27 3f fa d5 4c 3d
       -0.58262235 1.5151098 0.6524998 0.05000875
000150 40 f4 e8 3e 84 02 12 3e 1b 19 2e bf 4d ea 06 bf
       0.45498848 0.14258772 -0.6800706 -0.52701265
000160 12 f4 03 bf ae 0c b9 be 20 06 57 bf b0 b2 51 3e
       -0.51544297 -0.36142486 -0.8399372 0.2047832
000170 2d f1 1c 3f 83 e6 b2 3e ef ca ab 3e 5f bc 98 bf
       0.61305505 0.3494149 0.33553264 -1.1932486
000180 ab f4 92 3e 63 1a 04 be d1 19 96 be 72 47 05 bf
       0.28702292 -0.1290069 -0.2931657 -0.5206214
000190 9c 67 0c be 18 09 ae bf a4 15 dd 3e f7 98 89 3e
       -0.13711399 -1.3596525 0.43180573 0.26874515
0001a0 6c e2 c8 3e f2 22 ec 3e bb f7 94 3e 09 af 1e 3f
       0.39235246 0.4612041 0.29095253 0.6198583
0001b0 32 13 a0 3e 41 7b b7 3e 28 53 1c 3f 8d 26 49 bc
       0.31264645 0.35836223 0.61064386 -0.012277258
0001c0 90 09 3f 3f 97 12 71 3f 41 b4 73 3f 38 6c 33 3f
       0.74623966 0.9416899 0.9519692 0.70087004
0001d0 b7 4f 6d bf dd 05 4a 3e b3 96 08 3f 98 00 3b 3f
       -0.9269976 0.19728799 0.5335495 0.7304778
0001e0 be 26 83 bd 28 4c b9 3e 46 55 f0 bc aa 5c ab 3f
       -0.06403874 0.36190915 -0.029337537 1.3387654
0001f0 6c 29 69 be 22 f0 6a be 10 06 85 3f ea 2f dd 3e
       -0.22769707 -0.22943166 1.0392475 0.43200618
000200 43 be d2 3e 52 86 b5 3e 16 6f 24 3f e6 d3 97 3f
       0.41160783 0.3545404 0.64232004 1.1861541
000210 2d d7 23 3d 8a a4 29 bc e0 9b dd bd c4 98 b7 3e
       0.04000013 -0.010354171 -0.108207464 0.35858738
000220 8a a6 66 3f 6b b6 40 be bb 45 3b 3f f3 85 48 3e
       0.9009787 -0.18819587 0.73153275 0.19582348
000230 8a ab 97 3f b6 8c 06 3f 1a 1a 41 be 52 52 2c be
       1.1849225 0.5255846 -0.18857613 -0.16828278
000240 d4 30 53 3f 83 d4 86 3f 7d c6 02 3e cd f9 1a 3f
       0.8249638 1.0533603 0.1277103 0.60537416
000250 b1 3d 53 bf 68 5e 2a bf 63 a4 94 3e 3d 5b 53 3d
       -0.8251601 -0.665503 0.29031667 0.051600683
000260 00 60 8a 3d da 24 ba 3d c3 e6 3d be 4f 06 e1 3c
       0.06756592 0.0908906 -0.1854506 0.027468828
000270 2e 23 56 3f 67 e8 a9 3f bd bb 5e 3e 8d e1 00 be
       0.8364743 1.3274049 0.21751304 -0.12586041
000280 bb 34 9d 3d e2 e9 29 3d 42 ff a6 bf 57 24 9a 3e
       0.07676073 0.041482814 -1.3046649 0.3010585
000290 68 7c 69 bf a0 26 91 3d db 6c 5d 3e 47 b2 60 be
       -0.91205454 0.07087445 0.21623556 -0.21943007
0002a0 24 2d 48 3e 4d 91 93 3e 45 e6 5e 3e 51 c0 5a 3e
       0.1954847 0.28821793 0.21767528 0.21362425
0002b0 91 da 1d 3f 06 20 9f 3e 20 14 07 3f ae 3d b0 be
       0.6166163 0.3107912 0.52765083 -0.34422058
0002c0 ae 45 f8 3d 59 df e4 be 97 11 7a bd 06 c6 c9 3d
       0.12122665 -0.4470165 -0.06105193 0.09852223
0002d0 3e a3 68 3f c1 0c 5f bd df 22 01 3f 5e ed 39 3e
       0.9087409 -0.054455522 0.50443834 0.18156955
0002e0 e2 17 42 bd 96 b9 3a 3f 1e 4f 3f 3d b4 ea a3 be
       -0.047386058 0.7293943 0.04670631 -0.32015002
0002f0 99 ab de 3e 36 b0 c2 3e cf 84 a8 be 5b 89 84 3d
       0.43490294 0.38025063 -0.32913825 0.06471511
000300 07 05 31 3f ec 57 3e 3f 7c d6 d6 3d fe 4c a9 be
       0.69148296 0.7435291 0.104901284 -0.33066553
000310 aa 8f c0 3e 89 c0 f5 3e f8 47 ee bd ed 87 e6 3e
       0.37609607 0.47998455 -0.11634821 0.45025578

arith.constant2 f4 [26]
000000 4e 1e 56 bf 3c 67 4d 3c 6b b3 2c bf 86 e3 ce 3e
       -0.8363999 0.01253682 -0.6746127 0.40407962
000010 ca 6a d8 3d ea ec e8 3e 25 68 bc be cf 25 15 bf
       0.105672434 0.4549325 -0.36798206 -0.58260816
000020 89 b5 19 3f 27 cb 49 3e 6d d3 1a bf 43 65 71 be
       0.60042626 0.19706403 -0.6047886 -0.23573785
000030 02 02 04 3d c6 77 4d 3e b7 f2 1e bf 78 85 e8 be
       0.032228477 0.20065221 -0.62089103 -0.4541433
000040 ba a8 f3 be 92 a7 0d 3f b6 bc 31 3e 59 60 4c 3e
       -0.47589666 0.55333817 0.17357144 0.19958629
000050 fd 54 25 3f 4e b9 ae 3e 04 bc 1d 3d 78 00 5b 3e
       0.64582807 0.3412575 0.038509384 0.21386898
000060 77 60 00 be db 49 46 3e
       -0.12536798 0.19364111

arith.constant3 f4 [10]
000000 51 eb fa 3e 12 d9 8f 3f e0 f1 4c bf 20 ae 68 3f
       0.49007657 1.123812 -0.8005657 0.90890694
000010 16 a3 5c 3f 21 62 53 3e 39 f8 33 3f b5 26 bc 3e
       0.8618635 0.20642902 0.7030063 0.3674828
000020 52 87 90 3e 01 85 94 3d
       0.2822824 0.07251931

sequential_7_1/dense_21_1/BiasAdd/ReadVariableOp f4 [20]
000000 a2 b9 08 bf fe c5 92 3e e0 33 87 be 2d 36 6d 3f
       -0.53408253 0.2866668 -0.26406765 0.9266079
000010 95 2d 45 bf 58 50 e3 be 70 db 53 3f 71 8e 51 3e
       -0.7702268 -0.44397235 0.8275671 0.20464493
000020 56 51 03 3e 77 81 9b 3e 75 15 ca 3e 90 0c 4e 3f
       0.12823996 0.3037221 0.39469495 0.8048792
000030 7e 16 27 bf d9 2b f2 be 51 ad 8e 3d c3 73 33 3f
       -0.65268695 -0.47299078 0.06966651 0.70098513
000040 a5 e9 a8 3d 38 c2 23 bf 84 8a 05 3f 10 38 d3 3e
       0.08247689 -0.6396823 0.52164483 0.4125371

sequential_7_1/dense_21_1/MatMul f4 [20, 42]
000000 f0 ec 8f 3d 51 27 8d be bd 91 c4 be 97 95 d8 bf
       0.07027614 -0.2756906 -0.3839244 -1.6920651
000010 db f1 24 bd 08 38 42 bf da cd ae 3d ad 0e 0a bf
       -0.040269714 -0.75866747 0.08535357 -0.53928643
000020 bc d9 b5 3e 1d 92 f6 be b8 47 6b be 9c fe e3 bd
       0.3551768 -0.4815835 -0.22976577 -0.11132547
000030 ae f5 30 be 9b 6f 8c bd e2 5a 68 3e 0c 78 7d b8
       -0.1728122 -0.068572246 0.22690919 -6.0431703e-05
000040 80 a3 ec 3e c7 83 96 3d 5a d2 a8 bd 43 a3 54 bd
       0.4621849 0.07349353 -0.082432464 -0.05191351
000050 81 1e 17 bf 56 df a1 bd e6 b2 45 bf 9e 26 2f bc
       -0.5903092 -0.07903926 -0.772261 -0.010690359
000060 34 cc 4e be 34 71 55 3b 68 7d 2f 3f ee e5 15 be
       -0.20195085 0.0032568695 0.6855073 -0.14638492
000070 6b 54 e7 be 09 c8 db bd 96 03 90 bf 7b 3b f7 3d
       -0.45181593 -0.10731513 -1.1251094 0.12071892
000080 d8 10 28 bf 4b 3d 8b 3e 78 97 42 3f d3 a6 2d be
       -0.656507 0.271952 0.7601237 -0.1695817
000090 1c bb 16 be 84 2a 2b bd ce 64 cf be bc 61 f3 3d
       -0.14719814 -0.041788593 -0.40506595 0.11883876
0000a0 22 a0 f5 be ca a5 95 3e 14 ba 49 3e 0b e2 32 be
       -0.47973734 0.2922805 0.1969989 -0.17469041
0000b0 51 51 be 3e e9 26 6f 3e 69 a4 0a 3f a1 ba 86 3b
       0.37171414 0.23354687 0.5415712 0.0041116034
0000c0 09 26 92 3f ee ef 3f bb 66 a9 fe 3f 1a d3 e5 bd
       1.1417857 -0.0029287296 1.9895446 -0.11221905
0000d0 04 03 3d 3e 34 3a ae 3d 78 55 b1 be 55 38 b5 3d
       0.18458182 0.08507195 -0.3463552 0.08848635
0000e0 45 49 ae be a4 d5 12 3e 3a a2 1f bf 10 25 30 3e
       -0.34040275 0.1433931 -0.62356913 0.17201638
0000f0 05 30 f3 3d 3b ba 5c 3d 2b 0b 3c 3c c3 ae f9 3b
       0.118743934 0.05388854 0.011477272 0.00761971
000100 a6 15 65 3f ce e2 1f be ea ea 85 3f d3 4c 05 bf
       0.8948616 -0.15613863 1.0462315 -0.5207035
000110 9a 2a 9b bd fd 0a e8 bc 6a d5 b1 3d ca 3f 20 bd
       -0.07576485 -0.028325552 0.086832836 -0.039123334
000120 97 02 9d 3e 07 95 c4 be cc 47 60 3e c2 83 1b bf
       0.30666038 -0.3839495 0.21902388 -0.6074792
000130 e3 bf 74 be 13 4b 14 bc 55 24 85 be 78 34 cd 3d
       -0.23901324 -0.009051102 -0.26004282 0.10019773
000140 19 14 bc be fe 6e 23 3e 70 e2 08 bf 61 f6 72 3e
       -0.36734083 0.15960309 -0.53470516 0.23726799
000150 85 7b 19 be 42 36 90 3e 75 c7 31 be 9f f9 a6 bf
       -0.14988525 0.28166395 -0.17361243 -1.3044928
000160 6f bf 9e 3d 30 52 38 bf d0 58 ad 3d f5 f2 be be
       0.07751357 -0.7200041 0.08464205 -0.37294737
000170 fb b6 aa be b4 eb b7 be eb f6 d8 bd ad 5e 71 be
       -0.33342728 -0.35922015 -0.10593971 -0.23571272
000180 7f da 90 be e7 a0 44 be 33 56 9f 3c 30 32 38 be
       -0.282917 -0.19202004 0.019450283 -0.17987895
000190 c4 d2 33 ba 4d c9 f9 bd 42 13 1c 3f 08 a1 04 be
       -0.00068597146 -0.12196598 0.60966885 -0.12952054
0001a0 03 54 c8 3f ee f6 8b bc 19 64 9d 3f 42 04 58 3e
       1.5650638 -0.017085519 1.2296172 0.21095374
0001b0 0a ca 98 3f 73 f2 ae 3e f9 51 a8 3f 1a cb 8d bd
       1.1936657 0.3416935 1.3150016 -0.06923504
0001c0 a0 c9 ad 3f 78 da 2f 3c 4c 43 22 3f fb aa 3d 3e
       1.3577156 0.010733239 0.63383937 0.18522255
0001d0 b5 ec d8 bd a1 b3 ca 3e cd e5 2a 3f 43 e9 9e bd
       -0.10592023 0.3959017 0.667569 -0.07759335
0001e0 f9 8a dd 3e 10 a9 ba 3c f7 25 a7 3e b6 5b 38 3e
       0.4327009 0.022785693 0.32646152 0.18003735
0001f0 0d af 01 3f 8f ad a3 3e 7c e9 c8 3d 50 8d dd 3d
       0.5065773 0.31968352 0.098101586 0.10817969
000200 45 78 5f 3e 00 a5 9f 3f 8d 1c c9 3b a0 60 f2 3e
       0.21823223 1.2472229 0.0061374367 0.47339344
000210 71 df 7d bc 7f 17 9a 3e 7d 7b ce 3e 73 8f 8b 3e
       -0.015495167 0.3009605 0.4032859 0.2725788
000220 93 d4 f0 bd 4d e9 6a 3d e0 e7 83 bd 30 bb 0d be
       -0.11759295 0.0573514 -0.06440711 -0.13840938
000230 1a 4a 47 bb f6 31 ce be b3 65 bc be 8a 4b 2f bf
       -0.0030409158 -0.40272492 -0.3679634 -0.6847464
000240 95 d7 c8 3e 3d 7a 67 3d 69 35 44 3f 76 f9 ba 3d
       0.39226976 0.05651306 0.76644 0.09129612
000250 a5 a2 03 3f c4 7a 6f bb 3e 9b d9 3e e9 92 2b bd
       0.5142005 -0.003654168 0.42501253 -0.04188815
000260 4b 7a 77 3d 1b c8 08 3e 6c 88 76 3f 9e 89 12 3e
       0.060419362 0.13357584 0.96301913 0.1431031
000270 da f3 35 3f 3e 19 83 3e 22 2b 29 3f a1 64 95 3e
       0.7107521 0.25605196 0.6608144 0.29178336
000280 ea c3 f2 bd ea 73 b4 3d 9f aa f2 3d bd 83 2d 3e
       -0.11853774 0.08811171 0.1184895 0.16944785
000290 39 16 5e be 82 bb ae 3e ee b5 1e bf e4 3a cf 3e
       -0.21688165 0.34127432 -0.6199635 0.40474617
0002a0 fc 45 2a be e0 86 e3 bd 14 7e b8 be 37 8b 37 3f
       -0.1662826 -0.1110971 -0.3603369 0.716968
0002b0 8a 56 4e be 2f b6 1d 3e 01 6a 57 3e 31 b9 cb 3d
       -0.201502 0.15401529 0.21036531 0.09947432
0002c0 66 17 8d 3e 09 bd ba 3d cc 64 0a be 54 50 5a 3e
       0.27556914 0.09118087 -0.13515013 0.21319705
0002d0 69 3f d5 bd 25 d1 c0 3d e9 e6 79 3d 34 d1 30 3d
       -0.10412485 0.09414891 0.06101123 0.04316826
0002e0 f8 94 eb 3c ae b0 3f 3d 4a 02 2d bf 61 c8 20 bd
       0.028757557 0.046799354 -0.6758162 -0.039253596
0002f0 94 ac 37 bf db 4e 1b 3b 50 35 44 bf b8 c5 5f be
       -0.7174771 0.0023698125 -0.7664385 -0.21852767
000300 19 44 1c bf a3 89 85 be 78 a5 94 bf 4b 7d 04 3d
       -0.6104141 -0.2608157 -1.1612997 0.03234605
000310 da 51 3c bf 11 df 81 be f3 e2 40 bf 29 ba 49 bf
       -0.73562396 -0.253655 -0.753463 -0.7879968
000320 a6 31 40 bf 23 16 8f bf cd 1d f3 be d6 73 40 bd
       -0.7507576 -1.117863 -0.47483674 -0.04698547
000330 e6 9a ca be 2a 49 7e be c7 47 0f bf b5 58 02 bf
       -0.39571303 -0.24832597 -0.559689 -0.50916606
000340 19 c0 00 bf 4d 0f 0f bf 5a bf a6 bd fc 23 e1 bd
       -0.5029312 -0.5588272 -0.08141966 -0.109931916
000350 e5 45 d0 be 61 3d d0 bf b1 23 1e be 71 a4 5a bf
       -0.40678325 -1.6268731 -0.15443303 -0.8540717
000360 0b cb 86 bd af f6 3e bf 25 22 f1 bd c3 f8 48 bf
       -0.06581696 -0.7459516 -0.11774091 -0.7850458
000370 75 92 94 be e0 12 1f be f7 90 79 be 06 ed 99 bd
       -0.29017988 -0.15534544 -0.24371706 -0.07515912
000380 08 69 27 be 35 96 03 3e 71 d4 0f 3e 0c 7a 12 3e
       -0.1634866 0.12850268 0.14045884 0.1430437
000390 8a 75 fd be 6b df 41 be 8f 06 1e bf 04 01 cf 3c
       -0.49503738 -0.18932883 -0.6172876 0.025269039
0003a0 77 6d 7a 3c 4e 57 72 3e 45 c1 a7 3e df dc 82 3e
       0.0152848875 0.23666117 0.3276464 0.25559136
0003b0 ae cc 8f 3e a2 41 9b bd 1c e2 a0 be 32 69 86 bc
       0.28085846 -0.07580878 -0.31422508 -0.016407583
0003c0 ba f3 bf bd c6 c2 9a 3e 44 d2 f3 3d 92 c7 a1 3e
       -0.09372659 0.30226725 0.11905339 0.31597573
0003d0 2f df 88 3e 9a 63 6e bd be 9b 71 3d e4 d3 ee 3c
       0.26732776 -0.058200456 0.058986418 0.029153772
0003e0 10 75 f2 bd 83 05 ae 3e 8c c2 5a 3d 44 9a c2 3e
       -0.11838734 0.3398858 0.05340819 0.3800832
0003f0 2e 7e 86 be e4 e8 b2 3d 08 f9 48 bd b6 63 91 be
       -0.26268142 0.087358266 -0.04906562 -0.28396386
