backend/model/keypoint_classifier/keypoint_classifier.tflite (tflite, 7540 bytes, 6 tensors)

arith.constant f4 [26, 10]
000000 7c 6c 9c 3e d0 5a 31 be 47 26 61 be b8 da af be
       0.30551517 -0.17319798 -0.21987258 -0.34346557
000010 35 66 8e 3e b1 98 8f 3e 23 79 97 3e aa ce a2 be
       0.27812353 0.28046182 0.29584607 -0.31798297
000020 a3 f5 54 3c a2 2c 57 bf bc 88 05 be 80 b9 02 3f
       0.0129980175 -0.8405248 -0.13040441 0.510643
000030 a9 01 6f bd b0 39 25 3f 44 27 b2 be 47 50 97 3d
       -0.058351193 0.6454115 -0.34795582 0.073883586
000040 ea 31 3c bf 39 b4 48 be 66 3e eb bd 1f 05 6e be
       -0.7351366 -0.196 -0.11486511 -0.23244141
000050 f6 b7 18 3f 46 b1 b5 be 26 f5 9d bd 23 de 89 3e
       0.596557 -0.3548681 -0.07712774 0.2692729
000060 ca 36 95 3e 20 ef 87 be 1c a8 fd be 46 42 f0 3e
       0.29143363 -0.26549625 -0.4954232 0.46925563
000070 b9 d6 41 bf 33 e5 9f bf 1a b1 08 be 7c 55 49 3e
       -0.75718266 -1.2491821 -0.13348809 0.19661516
000080 aa 52 1a bf 22 00 51 bf 21 82 1e bf 1c a4 de bf
       -0.60282385 -0.8164083 -0.6191731 -1.7393832
000090 c0 aa 6d be 81 15 c7 3e d5 62 80 3e 2e be e0 3e
       -0.23209667 0.38883594 0.25075403 0.43895096
0000a0 ef 37 18 3e c3 4e a1 3e d8 d1 5d 3e 11 04 68 3e
       0.14865087 0.31505403 0.2166208 0.22657801
0000b0 9e df c1 be 47 23 16 be 0f 9d a0 bd e2 5a 90 be
       -0.3786592 -0.14661895 -0.078424565 -0.28194338
0000c0 e2 af ff bd a1 37 fb be 8a 1f ec 3e cd 26 97 3e
       -0.12484719 -0.4906588 0.46117812 0.2952179
0000d0 7f 6c 60 bf aa ec ac 3e c2 14 63 be 7b d1 b1 bf
       -0.8766555 0.3377431 -0.22175887 -1.3892053
0000e0 9e fd 73 be ea 1a cb 3d 8f 0a c9 3e bd 04 58 bf
       -0.23827216 0.09917243 0.39265868 -0.8438223
0000f0 cc 9a 30 be 85 00 bc bd 73 dc c0 bb 30 1e 34 3e
       -0.1724655 -0.091797866 -0.0058856546 0.1758964
000100 29 6e 07 3f 1f 47 26 3f 43 98 ec bd c1 94 6d be
       0.52902466 0.6495227 -0.11552479 -0.23201276
000110 a4 99 3c bf fd f2 8e bf 05 38 4f be 6a a4 12 bf
       -0.73671937 -1.1167904 -0.20236214 -0.57282126
000120 1e 32 fd bd ec 63 0c 3f ab 56 6e be 89 71 0d 3f
       -0.12363075 0.5483997 -0.23275249 0.55251366
000130 72 8e 86 3e 33 40 a5 3b 81 5e 95 bf 93 16 82 bf
       0.26280552 0.0050430535 -1.1669465 -1.0163139
000140 c1 41 a7 3e 7e db 26 3e 84 ee 56 be 66 cd 03 be
       0.32667354 0.16294667 -0.20989424 -0.12871322
000150 ae e5 df be a6 e5 9a bc 03 0d fc 3e 81 ce a2 be
       -0.4372992 -0.018908333 0.49228677 -0.31798175
000160 8f 2d a7 be 49 a7 e1 be ab 2e 5f 3e aa 6a be 3e
       -0.32651946 -0.4407294 0.21795146 0.37190753
000170 c1 56 39 3d f2 7c 55 bd c8 38 50 3a 4f 11 a0 3a
       0.04524875 -0.05212111 0.00079430314 0.001221219
000180 a7 00 a4 3d ea 87 b3 be f9 3b 55 bf 72 56 61 be
       0.08007937 -0.35064632 -0.83294636 -0.22005633
000190 51 96 f8 bf 54 a2 fc 3e ad 5e eb ba 77 80 5d bf
       -1.9420873 0.49342597 -0.0017957293 -0.86524147
0001a0 17 92 0e bf cf 9b 1e be ee 4f 24 bf ce e7 ba bd
       -0.55691665 -0.15489124 -0.64184463 -0.091262445
0001b0 6e 23 1e 3f 07 53 ec 3e e1 76 0c bd 42 4c a1 bf
       0.6177281 0.46157095 -0.03429306 -1.2601397
0001c0 02 ab 51 bf a0 aa 8d be 7b 08 15 3f 55 4e 6f bf
       -0.8190156 -0.2766924 0.58216065 -0.934789
0001d0 1a bb 35 3e dd 9f 3d 3c 5e ad 50 3e ff f6 db bc
       0.17747155 0.011573759 0.20378634 -0.026851175
0001e0 a2 60 0c 3c 00 5b 8c bd 0f e5 59 3f 80 e9 e0 bd
       0.008567961 -0.068532944 0.8511514 -0.109820366
0001f0 b0 cd 72 bf 0b 08 43 3e 06 a7 66 bf 30 59 74 be
       -0.94845104 0.19046037 -0.9009861 -0.23862147
000200 f9 d0 7e 3d b6 74 8f 3c fa 55 c0 3c cc 51 4a be
       0.06221101 0.017511707 0.023478497 -0.19757766
000210 eb 2a 61 3f dc d5 51 bf 65 69 77 bf 13 65 24 3e
       0.8795611 -0.8196695 -0.96645194 0.16054182
000220 65 9c 00 bf ad 8f b3 be 4b 2f ac bd 55 ff 97 3e
       -0.5023864 -0.35070553 -0.08407458 0.2968699
000230 2e d3 1f 3e c2 3c 91 3e d1 cd f6 ba 05 e7 6e 3e
       0.15607902 0.28366667 -0.0018829649 0.23330314
000240 e4 47 40 3d 60 21 29 3b f2 ce c9 bd 36 ba 4f bd
       0.04694356 0.0025807247 -0.09853925 -0.050714694
000250 bd 8f 81 bc a3 67 7b bf 6c 5c a0 bf 1b 90 31 bf
       -0.01581561 -0.9820501 -1.2528205 -0.6936051
000260 69 a0 2a bf d0 c9 eb be 45 69 ad 3c 72 4a f6 bd
       -0.66651016 -0.46052408 0.02116836 -0.12025918
000270 7f a2 1e 3f 0d 82 d2 3e 15 f9 9e be a6 3d 1d be
       0.619667 0.41114846 -0.3104941 -0.15355548
000280 74 7c 48 bf 31 34 c6 be 1d 50 ca be 57 ab c3 be
       -0.783149 -0.38711694 -0.39514247 -0.3821666
000290 f6 91 fb 3e aa 81 2c be 05 91 2b 3e 11 c2 35 3f
       0.49134797 -0.16846338 0.1675454 0.70999247
0002a0 e7 2f 63 bf c3 35 1b bf 73 64 2e be 7e a6 ac bc
       -0.8874497 -0.6062891 -0.17030506 -0.021075483
0002b0 2f 82 a2 be 81 64 ed 3e fb 15 43 bf b9 6a 34 bf
       -0.31739947 0.4636574 -0.76205415 -0.70475346
0002c0 68 3b f5 be 1b f8 42 bf e3 98 00 bd d1 78 1b 3f
       -0.47896886 -0.7615983 -0.031395804 0.60731226
0002d0 40 0c c5 3c b4 1e 0f bf 7b 89 07 3f 57 b0 ae be
       0.024053693 -0.55906224 0.52944154 -0.34118912
0002e0 05 ac db 3d 72 4d 8a 3e 13 a9 8f 3e 6c ca 81 bf
       0.107261695 0.2701221 0.2805868 -1.0139899
0002f0 f4 80 17 be 89 70 88 be 2a 87 10 3e ce af 40 3e
       -0.14795285 -0.26648358 0.14114061 0.18817064
000300 0b 53 ee 3e 4a 77 33 bf d3 df 56 3e 05 56 dc bd
       0.46547732 -0.70103896 0.2098382 -0.107585944
000310 fa c3 3d bb a4 7e 84 be 91 53 d6 3d 78 3b d2 be
       -0.0028955922 -0.2587787 0.10465158 -0.41060996
000320 60 ce 54 bc d2 74 29 c0 87 6a fb bd 40 49 1e 3f
       -0.012988657 -2.6477551 -0.12276178 0.6183052
000330 0a f2 5a bf 13 bc 41 bf 78 7b 1b bf 44 d4 a6 bf
       -0.8552557 -0.75677603 -0.60735273 -1.3033528
000340 9c a2 a8 3d ec 6b 25 3f 9c 45 d9 bf 0d 39 81 bf
       0.0823414 0.646178 -1.6974368 -1.0095536
000350 d4 33 ad 3d 5e 9f 11 3c 9b c6 ee be e2 f6 ab be
       0.08457151 0.008888094 -0.466359 -0.33586794
000360 27 3f 03 c0 b3 6b b2 3d dc 99 10 3f a5 72 06 3f
       -2.0507295 0.08711948 0.5648477 0.52518684
000370 c6 d5 82 3e 23 99 62 bf 43 5d 40 3e 03 7c 31 3f
       0.2555372 -0.8851492 0.18785577 0.6932985
000380 66 aa 8c bf 5b 2d 1d bf 26 d5 69 bf 30 da 3b bf
       -1.0989501 -0.6139733 -0.91340864 -0.733798
000390 82 fa d3 3e c6 d8 a0 bd 2a bc 54 bf f0 1e 46 be
       0.4140206 -0.07853846 -0.83099616 -0.19347739
0003a0 fd 71 84 3d 02 71 aa bf f1 81 f3 be 5c 20 0a bf
       0.06467054 -1.3315737 -0.47560075 -0.53955626
0003b0 e3 b0 5e 3d d9 0f ea 3e 50 98 b1 3e 9b 55 c4 3e
       0.05436791 0.45715216 0.34686518 0.38346562
0003c0 0b 11 3c bf ff 1a 95 3e 3a a0 ed 39 08 f0 0e bf
       -0.73463506 0.2912216 0.0004532354 -0.5583501
0003d0 15 ef 1d be 0d 06 fb be 0d 12 f7 3e fb 3e 56 3e
       -0.15423234 -0.49028054 0.4825596 0.20922463
0003e0 75 75 53 3e c1 5c f0 be 33 43 16 bf 94 02 44 bf
       0.20650275 -0.46945766 -0.5869629 -0.76566434
0003f0 94 07 d8 be 13 d6 93 bf 97 b4 85 be 12 55 00 bf
       -0.42193282 -1.1549705 -0.26114342 -0.50129807

arith.constant1 f4 [10, 20]
000000 a3 cb a3 3e da 66 99 bf 15 2b 41 3f 37 af 20 3f
       0.319913 -1.1984513 0.7545636 0.62767357
000010 a4 4e bc 3e a9 37 88 3e 78 ce 40 3d 24 e6 cc bd
       0.36778748 0.26604965 0.047071904 -0.10004833
000020 1c 35 84 3f 49 9f b5 3d 0b a1 c8 be 55 d7 11 be
       1.0328708 0.08868272 -0.39185366 -0.14242299
000030 5e 0f 05 bf 13 51 c5 bd 42 7c 20 3f 01 1a 06 3e
       -0.51976573 -0.09634604 0.626896 0.13095857
000040 75 9d 9d 3f ef 9d 8e 3f 2b a6 e6 3e c1 c0 70 bf
       1.2313677 1.1141948 0.4504865 -0.9404412
000050 56 36 07 40 e8 c1 78 bf 7a 8a 57 bd cb 16 a9 3e
       2.1126914 -0.9717088 -0.052622296 0.33025202
000060 56 55 83 3e 0c 30 a2 3e 5c 58 a6 3e f6 76 40 bf
       0.25651044 0.31677282 0.32489288 -0.7518152
000070 41 f7 b0 3d dd 88 f4 3d 0c 2b 80 3f d4 1a 32 bd
       0.0864091 0.11940167 1.0013137 -0.043482617
000080 ba 33 10 3e 1b 1a 1d 3e f3 00 bf 3d 07 8c a7 3c
       0.14082232 0.1534199 0.09326353 0.020452512
000090 7c 24 aa 3e f1 df 66 3e 9c 48 3d 3e e0 a6 87 bd
       0.3323096 0.22546364 0.1848473 -0.06623626
0000a0 f7 47 a2 be 94 31 de be 83 f9 b9 be 7f 89 a7 be
       -0.3169553 -0.433972 -0.36323175 -0.3272209
0000b0 5e b4 98 3e 40 bd 84 be ef c7 a2 3e 94 0f a5 bf
       0.2982511 -0.25925636 0.31793162 -1.2895379
0000c0 24 37 13 3f 35 b8 1c 3f 7e 15 60 3f de 7d 7c be
       0.5750601 0.6121858 0.87532794 -0.2465739
0000d0 03 4a 02 bf 66 7b ab be e2 5d 9f be e5 61 14 3f
       -0.5089418 -0.33492583 -0.31126314 0.57961875
0000e0 52 53 3e 3f f7 d0 df bd af b7 30 3f 4b 25 23 bf
       0.74345887 -0.10928529 0.6903028 -0.6372878
0000f0 5d 62 28 3e 1a 27 28 3e 99 e4 96 3f f8 7c e4 be
       0.16443773 0.16421166 1.1788512 -0.44626594
000100 94 d6 48 bf bb e2 71 bf 03 85 94 3e 0e 55 49 be
       -0.7845242 -0.9448659 0.2900773 -0.19661352
000110 cf 1c 1c 3f 29 b7 68 3e da c8 85 be a5 95 d3 3b
       0.6098146 0.2272612 -0.261298 0.006457048
000120 51 58 98 3e ec bc bc 3e f4 b4 fd 3f d5 14 1e 3e
       0.2975488 0.36862886 1.9820848 0.15437634
000130 64 7e 0b 3f 21 c4 92 3f 0a 09 04 3c e0 33 09 3c
       0.5448973 1.1466104 0.008058796 0.008374184
000140 ce 41 a0 be 5e f5 b0 be c0 e9 3e 3f 58 b2 1e 3f
       -0.31300205 -0.345622 0.74575424 0.6199088
000150 3a 4d 3f 3f ee f1 6b 3f bd a2 8c bf 33 83 21 3f
       0.74727213 0.9216603 -1.0987164 0.6309082
000160 b2 7d a6 3e 76 cf 92 bf 16 c8 6d 3e 04 88 fc be
       0.32517773 -1.1469562 0.23220858 -0.49322522
000170 19 ad 29 3f 14 9f 7f be 1e ed 67 3c 21 31 bc 3e
       0.6627975 -0.24963027 0.014155654 0.36756232
000180 7b 53 02 3e 41 70 9a 3e 6a 54 a1 3e 31 80 8f 3e
       0.12727158 0.30163768 0.31509715 0.2802749
000190 d1 e0 c8 bd be 4e 9a 3e 97 2e be 3e 95 08 76 be
       -0.09808505 0.301382 0.3714492 -0.24026711
0001a0 4a c8 b3 3c 87 7f a3 be 15 aa 9f be a1 c8 f8 3e
       0.021946091 -0.31933233 -0.3118445 0.48590568
0001b0 3f f0 28 3f 0f ec d8 bd fc 13 ce 3f 00 cd b6 34
       0.65991586 -0.105918996 1.6099849 3.40493e-07
0001c0 fe 1e 2a 3f 56 93 43 bf 29 a9 2c 3d 2f 46 00 3f
       0.6645354 -0.7639669 0.04215351 0.5010709
0001d0 a5 99 14 3f b7 f4 b0 3e 7e 06 82 3f 6f 0b 56 3f
       0.5804694 0.34561703 1.0158231 0.83611196
0001e0 d5 a8 79 3f 9b ba 9f 3e 44 63 bd 3e d0 31 9d 3f
       0.9752324 0.31197056 0.36989796 1.2280827
0001f0 6c 22 b1 3f 30 dd 60 3f 8f 91 f9 bd c3 36 08 3f
       1.383863 0.87837505 -0.12185966 0.5320856
000200 d7 ba 63 3e d3 78 c5 bb e6 dc 15 3f 95 ce b8 3d
       0.22239242 -0.0060263663 0.5854019 0.090237774
000210 e6 d0 71 3f dd f8 81 bc 9f 25 cd be c8 da f7 3d
       0.9445938 -0.015865738 -0.40067765 0.12102276
000220 c8 b1 40 3e cb 73 1c 3e 85 f7 07 3f c0 70 1c 3f
       0.18817818 0.15278547 0.5311206 0.6110954
000230 f8 f7 ec 3e a5 2a 9d 3f f7 c0 68 3e ef b0 95 3f
       0.46282935 1.2278639 0.2272986 1.1694621
000240 32 6e 0b 3f 93 ba 82 3f 27 81 5c 3f 8e 45 9b 3e
       0.5446502 1.0213188 0.8613457 0.30326504
000250 30 f8 42 3e a2 13 8a 3e 38 5a 91 3d 8d e5 5b 3d
       0.19039989 0.26968104 0.07097286 0.053685714
000260 36 03 e6 3e c6 1d 9f 3e 76 d2 9d 3e 73 2b 0f 3e
       0.44924325 0.31077403 0.3082463 0.13981418
000270 08 4d d8 bd ee 08 41 bf 2e 84 ba 3e a5 32 40 3f
       -0.105615675 -0.7540425 0.3642897 0.7507728
000280 a1 d4 45 bd 0b 72 4e bf f9 01 33 3e 48 45 80 3e
       -0.04829848 -0.80642766 0.17481221 0.25052857
000290 ca 1b e1 3e cc 83 3b 3f d1 7e 6c 3f 86 9a bb be
       0.43966514 0.7324798 0.92381006 -0.3664133
0002a0 a5 fb 51 3e e5 af 75 3f f1 14 93 3e 21 0c 20 3f
       0.20506151 0.9597152 0.28726915 0.6251851
0002b0 59 a4 c8 be 70 ef ba 3f 4c ef 7e bc 65 79 60 3f
       -0.39187887 1.460432 -0.0155599825 0.87685233
0002c0 d8 ab 7b 3e d7 05 20 bd c8 af 9d bd d0 87 d2 be
       0.24577272 -0.03906807 -0.07699543 -0.41119242
0002d0 5b db 38 3e 04 d5 1c bf 3a ba b1 3e 93 64 42 be
       0.18052427 -0.61262536 0.34712392 -0.18983679
0002e0 81 12 2d 3e 86 2c 61 bf b3 6d 7f 3e 4e 5f ec be
       0.1690159 -0.8795856 0.2494419 -0.46166462
0002f0 ec a6 60 3e 7a 29 9f 3f ea 7a c0 bd ae df de 3f
       0.21938676 1.2434533 -0.09398444 1.7412012
000300 12 be 5f bf 19 e2 f8 3e f0 19 ad be f0 c5 73 3f
       -0.873994 0.4861 -0.3380885 0.95223904
000310 15 4d ac 3c 95 41 72 bc cc 21 2b 3e aa fc a7 bf
       0.02103285 -0.014786144 0.16712111 -1.3123982

arith.constant2 f4 [26]
000000 fb 36 82 bf f4 ec b8 bd 20 51 29 bf ec af 1e 3f
       -1.0173029 -0.0902957 -0.6613941 0.61987185
000010 d7 13 12 be 0f 96 9e 3e da 3c 42 bf 43 78 25 bf
       -0.14265381 0.3097386 -0.758741 -0.6463663
000020 e8 23 27 3f 38 a2 c0 3e a8 24 f8 be 30 f9 96 3e
       0.65289164 0.37623763 -0.48465466 0.2948699
000030 1b 68 b2 be e4 d7 35 be fe 73 2d be cb 44 e0 3d
       -0.3484505 -0.17758137 -0.16938779 0.10950621
000040 1d 22 19 bf 4b 8e 0e 3f c7 aa 91 3e d9 b9 4d bd
       -0.5981768 0.5568587 0.28450605 -0.050226066
000050 a1 23 40 3f 4c 09 0a 3f e4 a5 03 3c 50 7c 15 3d
       0.75054365 0.53920436 0.008035157 0.036495507
000060 82 8f 4c bf 81 72 d3 3e
       -0.79906476 0.41298297

arith.constant3 f4 [10]
000000 6c 55 df 3e 54 c6 18 be f4 22 b0 3e ac 5f 15 3f
       0.4361986 -0.14919406 0.34401667 0.5834911
000010 58 59 9e be df fe 72 be 5a 44 34 3e bf 61 e5 bb
       -0.3092754 -0.23730038 0.17604199 -0.0070001776
000020 5b 90 36 3f aa 3b f8 3f
       0.7131402 1.9393208

sequential_6_1/dense_18_1/BiasAdd/ReadVariableOp f4 [20]
000000 01 ed 8b be 3e 18 0f 3f 1f 89 d4 3e ae 72 c6 b9
       -0.27329257 0.55896366 0.41510865 -0.00037850946
000010 1b 81 d1 be fd 78 b7 be c4 9c cc 3d 9e 1e 94 3e
       -0.40918812 -0.35834494 0.09990838 0.2892961
000020 ed ba 6f bf 32 1f fe 3e 4b b7 5f bf 2a d3 6a 3f
       -0.936446 0.49633175 -0.8738906 0.9172846
000030 86 f5 db 3e 4c 26 0b 3f 3b 73 79 bc 43 79 09 be
       0.42960757 0.5435531 -0.015225227 -0.13425164
000040 a6 54 83 bf 27 af df bd a1 58 e4 be bb 72 20 3f
       -1.0260208 -0.109220795 -0.44598868 0.62675065

sequential_6_1/dense_18_1/MatMul f4 [20, 42]
000000 24 0e 25 3e 00 b5 c9 3b 57 fd 46 3e 3a aa ea 3d
       0.16118675 0.00615561 0.19432579 0.114582494
000010 a6 f7 40 3e 8b 14 7c 3d 0d 8a 52 3e f5 86 d8 3d
       0.1884447 0.06154303 0.20560475 0.10572616
000020 dc e1 08 3e 61 21 ae 3d 83 b8 94 3e 87 96 de 3d
       0.13367409 0.0850246 0.2904702 0.108685546
000030 35 c8 87 3e 0f 66 b1 3d c2 1d a6 3e 55 2d b6 3c
       0.26519933 0.08662044 0.32444578 0.022238413
000040 aa a1 c4 3e 08 d1 00 3d 58 12 d3 3e 9b 7a dd 3d
       0.3840459 0.031449348 0.41224933 0.10814401
000050 21 da 8e 3c e1 cd 53 3d f9 b2 36 3e 8b 0d 63 bd
       0.017437996 0.051710013 0.1784171 -0.055432837
000060 7e ec af 3d ba 16 c7 bd e9 86 fe bd 90 ba 78 3d
       0.08590029 -0.097211316 -0.12428076 0.060724795
000070 01 09 c2 be f4 de 2c 3c 00 e6 0e 3f 73 a3 83 bc
       -0.37897494 0.010551203 0.558197 -0.01606915
000080 46 da 93 3f 19 a0 e3 3d 9d 0c 59 be e0 72 11 3d
       1.1550987 0.111145206 -0.21196218 0.035509944
000090 9a 9a 45 bd c5 63 3f be 11 e0 4d 3f 25 69 1c bf
       -0.048243143 -0.18690403 0.80420023 -0.6109794
0000a0 48 83 a9 3f d5 2d d8 bf ac a5 37 3e ae db 1d 3e
       1.3243189 -1.6888987 0.17934293 0.15415832
0000b0 78 e4 bc bc b6 5c 28 be df 17 e6 bb d0 eb a6 3e
       -0.023058161 -0.16441616 -0.0070218886 0.32601786
0000c0 18 87 56 3d 46 2f 15 3f 45 e1 56 3e 9c 7e 40 3f
       0.05237493 0.5827526 0.20984371 0.7519319
0000d0 41 4c c5 be a8 58 80 3e 96 57 54 be 76 ef 82 3e
       -0.3853474 0.2506764 -0.20736536 0.2557332
0000e0 52 44 a0 be d4 a4 b2 3e f1 e6 84 be 64 29 01 3f
       -0.31302124 0.3489138 -0.25957444 0.5045378
0000f0 7e 00 60 bf df 37 88 3e 71 bc bc be 57 71 c6 3e
       -0.8750075 0.26605126 -0.3686252 0.38758346
000100 9e eb 40 bf 8b 01 75 3e a8 34 75 bf 84 b8 c4 bd
       -0.75359523 0.2392637 -0.9578347 -0.09605506
000110 7c a8 b6 be 7d 0f 1f 3f c6 bf c0 bd b9 15 65 3f
       -0.35675418 0.6213301 -0.09411578 0.8948627
000120 b7 f9 80 be 44 87 af 3e 6c 4a 92 bd 71 7b 55 3f
       -0.25190517 0.34282887 -0.07143101 0.8339148
000130 4d d3 9c be d5 97 8b 3f 47 1e f9 3d a8 0a 1f 3f
       -0.3062996 1.090571 0.12163978 0.62125635
000140 8f b8 84 bb 56 61 a0 3e 64 55 b1 bd c5 48 58 3e
       -0.0040503214 0.3132426 -0.08658865 0.2112151
000150 18 4d 00 3d 5c 2b c9 3d 08 e8 1d 3f ea 85 66 3f
       0.031323522 0.09822723 0.61682177 0.90048087
000160 d5 e9 39 3e d9 f0 2d 3f 61 b5 10 bf 19 f0 c6 3e
       0.18155606 0.6794563 -0.5652676 0.38855055
000170 dd af a9 bf 88 b6 a8 3e 33 2c e0 3e 29 a1 f8 bc
       -1.3256794 0.3295176 0.4378372 -0.030350285
000180 f1 94 e8 3e 7e f7 b0 3c 89 04 85 3e 30 ce 1e be
       0.45426133 0.021602388 0.25980023 -0.15508342
000190 5a 8d d6 bc b2 a5 8b be ec 5e fe 3d c8 9a 23 3e
       -0.026190449 -0.27274853 0.12420449 0.15977013
0001a0 de 3d 13 bf 7b 76 f5 bc 34 55 19 bf 96 b0 bc be
       -0.57516277 -0.029963722 -0.59895635 -0.36853474
0001b0 90 49 a2 bf 2a 7e 04 bf 2a f2 8a bf 3e d9 0c 3e
       -1.26787 -0.5175501 -1.0855153 0.13754746
0001c0 11 f6 61 bf 92 63 a0 3d 30 86 2a bf 56 90 79 bd
       -0.8826609 0.078314915 -0.66611004 -0.060928665
0001d0 51 3a 97 bf a1 a9 86 be 28 31 40 bf 1c 9f 03 3e
       -1.1814672 -0.26301292 -0.75075006 0.12853664
0001e0 1b c8 bb be 56 9d ee bb 3b 00 ae be d6 06 8e 3b
       -0.36676106 -0.0072819395 -0.3398455 0.004334311
0001f0 b5 fe 45 bf a2 3a f2 be 5c 2c 8b 3e ca 59 a8 bd
       -0.7734178 -0.47310358 0.2718228 -0.08220251
000200 d6 58 20 be be 89 3d 3f c8 dd ac be a9 68 b6 3e
       -0.15658888 0.740383 -0.33762956 0.35626724
000210 4d 35 46 bf 82 09 7d 3e 1d 09 f0 bf 98 c6 52 3e
       -0.7742508 0.24710658 -1.8752781 0.2058357
000220 a1 9e 49 be e7 82 76 bc fa c2 57 3d 46 46 b0 3d
       -0.19689418 -0.015045858 0.05267618 0.086071536
000230 66 8d 0c 3e 12 e8 83 3d 21 e5 39 3d 73 b8 a0 3d
       0.13725814 0.06440748 0.04538453 0.07847681
000240 c9 31 a9 bd b3 d8 1c 3d 69 b4 c9 3e 29 41 ad 3d
       -0.08261449 0.038292598 0.39395455 0.08459694
000250 65 61 c1 3d 40 d4 40 3e b3 87 df be 8e e8 3a 3e
       0.09442405 0.18830967 -0.43658218 0.18252775
000260 b1 67 8c 3e 81 ca 06 3d 83 db de 3e 8f cc 19 3d
       0.2742286 0.032907967 0.4352685 0.037548598
000270 68 e6 b2 3f a8 32 9f bc ce 06 81 3f de 50 06 3d
       1.3976564 -0.019433334 1.0080202 0.032791965
000280 b3 71 ff 3d 1f a4 8f bd 95 21 03 3f 87 bc cd bc
       0.12472858 -0.070137255 0.5122312 -0.02511431
000290 c7 76 31 3f fe d3 73 be 01 c9 71 3f f0 45 bb be
       0.69321865 -0.23811337 0.9444733 -0.36576796
0002a0 b5 3d 22 be ce e4 ad bd 29 1a d1 be f3 c8 27 bf
       -0.15843852 -0.08490907 -0.4084027 -0.65541
0002b0 85 17 da be d5 a3 46 be 9d b2 78 bf a8 a2 9c be
       -0.4259607 -0.19398434 -0.9714754 -0.30592847
0002c0 54 4a 93 bf 69 09 db bd 33 71 e8 be 8f 2d 33 bc
       -1.1507058 -0.10695154 -0.45398864 -0.010936155
0002d0 b5 18 d0 bd d4 91 d4 bd 1f 4e f7 3d 54 34 09 bd
       -0.101609625 -0.10379377 0.12075447 -0.03349717
0002e0 77 51 d4 3e 0d 36 3c bc 41 9e 02 bf ad e7 05 bc
       0.41468403 -0.011487496 -0.51022726 -0.008172912
0002f0 ce ed e4 3d d4 cc a6 3d a5 7e 64 3d 01 af 8a 3e
       0.1117817 0.081445366 0.05578484 0.27086642
000300 71 88 48 be 3a 13 85 3e 86 d0 ba 3d 17 40 66 bc
       -0.19583298 0.2599123 0.09121804 -0.014053366
000310 00 49 e3 3e 04 27 c0 3d c8 1a 15 3f 3a 07 96 3e
       0.44391632 0.09382442 0.5824399 0.29302388
000320 47 3d 57 3f 63 09 a2 3e 42 36 e7 3e 8d ee 4a bd
       0.84077877 0.31647786 0.45158583 -0.049543906
000330 3c f9 0a 3f 2e 03 2f bd f9 02 2c 3f e0 ce 99 3d
       0.5428655 -0.04272764 0.67192036 0.075101614
000340 78 64 37 3f 3b 69 8e 3c 7c d5 64 be a9 2d 1b be
       0.7163768 0.017384162 -0.22347063 -0.15154137
000350 e2 0e ec bb a0 60 05 3e a1 4d c4 bc b7 dc a9 3d
       -0.0072039226 0.13025141 -0.023962798 0.08294051
000360 f7 9a 4d bf 35 60 a9 3d 5a 01 ed bf 1a e8 83 bc
       -0.8031458 0.08270303 -1.8516037 -0.016101886
000370 8f 65 aa 3d da a7 63 3c 43 33 4d bd 49 ae 99 3c
       0.08320152 0.013894999 -0.050097715 0.018759863
000380 c5 eb b7 ba 5a e4 16 bd 5d 25 c1 bc ea 26 23 bc
       -0.0014032057 -0.036838867 -0.023577387 -0.009958008
000390 9f f3 03 3c d6 26 18 3b f3 39 d3 3e d5 42 2a 3a
       0.008053689 0.0023216507 0.4125515 0.0006494944
0003a0 e7 d3 60 3e 63 86 a3 3c 0c 98 31 be 02 ab c7 3c
       0.21955834 0.019961542 -0.17343158 0.024373535
0003b0 5b c2 18 3e 6f a3 c1 3c 60 17 1f 3f a0 ed 44 bc
       0.1491789 0.023637502 0.6214504 -0.012019545
0003c0 fe 53 83 3f 27 d4 fb bd ec ba 1e 3f 62 a6 1d be
       1.0260007 -0.12296324 0.6200397 -0.15395501
0003d0 47 7c 5a 3d ee 98 b6 3b 05 91 8a 3e 18 a0 2f bd
       0.053341176 0.00557243 0.27063766 -0.042877287
0003e0 92 bc 2a 3f fa 6c a3 3c fd 03 41 3f ea 02 20 3e
       0.66693985 0.019949425 0.7539671 0.15626112
0003f0 70 ef 8a be 38 cc 92 3e 55 a3 aa 3e 45 57 93 bd
       -0.271358 0.28671432 0.33327737 -0.0719438
