backend/model/keypoint_classifier/keypoint_classifier.tflite (tflite, 7744 bytes, 6 tensors)

arith.constant f4 [31, 10]
000000 d2 24 32 3e 7b 94 05 be f2 5d ee be 03 4a 0b be
       0.17396858 -0.13044922 -0.4655605 -0.13602452
000010 9c df a5 3e 3a 35 04 3f 4a d5 ae be 3c c8 ec be
       0.32397163 0.5164372 -0.34147102 -0.46246517
000020 52 fd b9 3d 16 46 63 bd 1e 63 0d 3f e4 90 76 bd
       0.0908152 -0.05548676 0.55229366 -0.060196772
000030 ee 2c 9f be cd 5f a3 bd 9f fb b8 be bf ee b3 bd
       -0.31088966 -0.07977257 -0.36129472 -0.087857716
000040 77 d4 87 3e 3b f8 8a 3e 99 57 3f bf 7a e7 02 3e
       0.26529285 0.2714251 -0.7474304 0.12783614
000050 a3 a4 73 3e 5a 40 56 3e 17 31 27 bf cb 24 ce be
       0.23793273 0.20922986 -0.6530928 -0.40262446
000060 b5 75 7f be 5d 47 00 3f 8d b6 07 be 88 96 e5 3e
       -0.24947245 0.5010889 -0.13253231 0.4484141
000070 9f d1 44 bf 02 f5 8c be e2 8b 95 bf 97 07 bf 3d
       -0.76882356 -0.27530676 -1.1683314 0.093276195
000080 3a c9 85 3e bf bf 8b 3d 83 87 15 bf 3f e2 40 bf
       0.26130086 0.06823682 -0.584099 -0.75345224
000090 41 26 d3 3e 7f b2 b6 bf 50 ff 41 bf 87 f7 4f 3f
       0.41240123 -1.4273223 -0.757802 0.8123707
0000a0 8b 73 7c 3c 20 22 ff 3d 3c 59 17 bf df 27 45 3d
       0.015408407 0.12457681 -0.59120536 0.048133727
0000b0 6d 9a 3a be ac 7a b9 3e 14 32 f4 3d e9 d0 09 3e
       -0.18222971 0.36226404 0.11923614 0.13458599
0000c0 12 ff 36 bf 59 9e 98 3d de f3 0a bf e0 7c 1a 3f
       -0.71482956 0.074520774 -0.5427836 0.60346794
0000d0 95 ad 2e bf a2 0a 18 be 35 cd 13 bf 78 d3 19 3e
       -0.68233615 -0.14847806 -0.57734996 0.15022075
0000e0 85 32 90 3e b3 47 ca 3d 89 a8 4b bf f9 42 90 3d
       0.28163543 0.09876957 -0.7955404 0.07044024
0000f0 bf d8 81 3e 32 04 25 bf 86 3c c2 bd e0 50 05 bf
       0.25360677 -0.64459527 -0.094842 -0.5207653
000100 6d 04 99 3e f3 22 8e 3e d3 db 00 bf 3b 47 23 3e
       0.2988619 0.2776104 -0.50335425 0.15945141
000110 ad cd d3 3e 70 10 23 bf 58 5e a4 3e b5 0b 22 bf
       0.41367856 -0.63696957 0.3210323 -0.63299114
000120 46 56 5d bb 9f a5 13 be b8 0e 91 be a1 56 cc 3e
       -0.0033773347 -0.14418648 -0.28331542 0.39909843
000130 8f e6 84 3e 8b 0b 0d 3e 32 9a 54 3e 35 3c 90 bf
       0.25957152 0.13773935 0.20761946 -1.1268374
000140 24 b1 83 be a0 74 8e be 63 5a fb be 19 9d d7 3d
       -0.25721085 -0.27823353 -0.49092397 0.10528011
000150 34 c6 74 3e ca fb 09 3f 14 04 a7 3e ce 05 02 bf
       0.23903733 0.53899825 0.326203 -0.5079011
000160 2a 2d 06 bf fb ca 95 3c 40 17 c5 3d e7 78 95 be
       -0.52412665 0.018285265 0.09623575 -0.29193804
000170 d9 8f 1e bf ce 0a aa 3d 59 72 17 3d 5d fd d4 3e
       -0.61938244 0.08302842 0.036974285 0.4159955
000180 dc dd 56 3e 43 d2 80 be 32 c6 f1 be e1 71 e2 3d
       0.2098307 -0.25160417 -0.47221524 0.11056877
000190 ad c8 9f be 9b bb ae be 3f 0c 2e 3f 9e 73 c0 be
       -0.3120779 -0.34127507 0.67987436 -0.3758821
0001a0 04 1d 60 3e 0a 90 20 bf 43 34 5d bf cb 7e 8f be
       0.21886069 -0.62719786 -0.8640787 -0.28026423
0001b0 2f 40 ee be 2a 4c 14 3e 31 6c 04 bf 7b 3d 61 3e
       -0.46533343 0.1448218 -0.51727587 0.21996109
0001c0 5d ed 86 be 9e df 4e be 49 31 69 bf a5 4c fc 3e
       -0.2635297 -0.2020249 -0.9109083 0.49277225
0001d0 7b b2 08 bf 13 43 8d bf 46 5d 22 3f ec 54 cb 3d
       -0.5339734 -1.1036094 0.63423574 0.09928307
0001e0 dd f8 10 be 0e 88 0d be b7 11 32 bd 5f 35 22 3e
       -0.14157434 -0.13821432 -0.043473925 0.15840672
0001f0 c2 3c be 3e 37 5e a4 be ef 2a a3 be 6c 32 9c bc
       0.3715573 -0.3210313 -0.31868693 -0.019067012
000200 46 d6 fe be 6e 52 d0 3e 66 b8 f4 be 83 43 9c be
       -0.49772853 0.4068789 -0.47796935 -0.30520257
000210 e3 6e 39 be 19 32 ad 3c 52 36 05 3f a1 b9 f5 be
       -0.18108706 0.021142052 0.5203601 -0.47993186
000220 24 ca d2 be 5c b9 8d be 7b d8 37 bc 1c a4 05 3f
       -0.41169846 -0.2768048 -0.011221047 0.52203536
000230 52 4d b7 3e 01 e7 14 3e 88 7a 2a bf 3a d0 c2 bd
       0.35801178 0.14541246 -0.6659322 -0.09512372
000240 5b d2 6a bc 83 ff 64 3e f2 d5 00 be 1b 83 91 3e
       -0.014332379 0.22363095 -0.12581614 0.28420338
000250 26 e7 0c bf a6 fc dc 3b f0 c2 79 be 09 f9 91 bf
       -0.55040205 0.006743985 -0.24390769 -1.1404124
000260 8c 2f 22 bc d5 ea 27 3f d0 8c 22 bf d8 b9 63 be
       -0.009899031 0.655927 -0.6349611 -0.22238863
000270 29 99 4f bf 51 9e cf bd c3 70 0a 3f 25 20 80 be
       -0.8109308 -0.10137618 0.5407831 -0.25024524
000280 d7 c7 74 3e c0 e1 61 bf aa 71 0d be 50 70 68 3f
       0.23904358 -0.8823509 -0.1381289 0.90796375
000290 57 58 8b bf a5 85 14 3b f4 0b 8a be b5 2b a5 be
       -1.0886334 0.0022662666 -0.26962245 -0.32259908
0002a0 57 c3 96 3e ca b3 31 bf 7b 17 ec be a6 1a ae 3e
       0.29445907 -0.6941496 -0.46111664 0.34004706
0002b0 3a d6 93 3e a3 c4 2d be 6f 5f f3 be 03 fa 9d be
       0.2887438 -0.16969542 -0.47533748 -0.30854806
0002c0 35 24 ee 3d d0 f6 f5 bc cc eb d5 be a0 1d 9d 3c
       0.11628 -0.030024916 -0.4178146 0.019179165
0002d0 e9 44 e4 3d e9 91 6e be 76 cf 0b bf 1a d0 2c 3d
       0.11145956 -0.23297848 -0.54613435 0.04219065
0002e0 3c ad c5 3e d2 18 07 3c 93 de d8 be 2c 89 05 3d
       0.3860873 0.008245664 -0.4235731 0.03260152
0002f0 3c ed 43 3d 9d 10 7d 3e 3b 75 24 bf 9a 35 09 bf
       0.047833666 0.24713369 -0.6424138 -0.53597414
000300 db cd 09 bf 2b ec 00 3e 45 06 dc 3e d8 70 56 3e
       -0.53829736 0.12590091 0.42973533 0.20941484
000310 ab 3b 73 be c5 52 44 be 66 e8 af 3d 62 53 b1 3e
       -0.2375323 -0.19172199 0.08589248 0.3463393
000320 d9 1b 38 bf 17 a7 b7 3e 6d 10 14 3f cf 20 ce be
       -0.7191749 0.35869667 0.57837564 -0.40259406
000330 fb b4 81 bf eb 87 47 be dc f9 fa be 9d da 3b 3d
       -1.0133356 -0.19485442 -0.49018753 0.045862783
000340 13 82 4d be 91 f3 d6 bd 74 67 bc be aa 93 75 3e
       -0.2006915 -0.10495675 -0.36797678 0.2398211
000350 7e 27 5e 3f 08 3a b5 be bf a1 33 bf 2a b9 47 bf
       0.8677901 -0.35395837 -0.7016868 -0.7801691
000360 40 93 93 bf 55 6e b2 be d1 6a 49 bf 2b 01 af 3e
       -1.1529312 -0.34849802 -0.78678614 0.3418058
000370 1d 5f e1 3d dc 99 d6 3e 8c 74 ae 3e 65 d3 53 be
       0.110044695 0.4191426 0.34073293 -0.2068611
000380 c9 4b 1f bf cb da c6 be 81 ba f3 3d af 24 7d bd
       -0.62225014 -0.388388 0.11900807 -0.061802562
000390 d8 dd 09 bf d0 e8 9a b8 0e 7f e2 be 1f 4d 00 bf
       -0.5385413 -7.386657e-05 -0.4423756 -0.5011768
0003a0 59 15 62 3e d4 c6 1b be 5c 01 c1 be 5f 03 2a bf
       0.22078456 -0.15212566 -0.3769635 -0.66411394
0003b0 11 de 20 be 35 e8 8e bf 1d 0b 0b bc 11 6c 4c 3f
       -0.15709712 -1.1164614 -0.008486536 0.79852396
0003c0 4f 43 61 bf ac 6a 0b 3e 00 57 e3 be 4a 18 9f 3e
       -0.8799333 0.13614911 -0.44402313 0.3107322
0003d0 fc 7c 2e 3f 09 c9 2b 3e b0 44 1d bc 70 98 0e c0
       0.6815946 0.16775908 -0.009598896 -2.228054
0003e0 a9 f8 c9 be 3d 61 d6 3e f9 d6 16 bf 98 ab 33 bf
       -0.39447525 0.41871062 -0.5892177 -0.70183706
0003f0 b2 a7 b1 3e 46 a4 ab be a3 45 ff bd 86 c2 96 be
       0.34698254 -0.33523768 -0.12464454 -0.29445285

arith.constant1 f4 [10, 20]
000000 9a c8 2c 3f a2 e8 b1 3e 2f f5 a9 3e e6 2f 4e bc
       0.67493594 0.34747797 0.33194873 -0.012584662
000010 99 56 72 bf e7 22 32 bf 69 ac 9e 3e 35 84 8a 3e
       -0.9466339 -0.69584507 0.30990914 0.2705399
000020 9c 98 ca 3e e8 22 cd 3d 72 d7 03 bf 01 df e0 3e
       0.39569557 0.100164235 -0.5150062 0.43920138
000030 1a b2 a4 3e d7 4d 19 3d 52 99 86 3f 5f a6 eb 3e
       0.3216713 0.03742775 1.051554 0.4602537
000040 6e 32 a4 bf 08 84 47 3f a2 9a 93 3e d4 72 47 3d
       -1.282789 0.7793584 0.28828913 0.048693493
000050 65 c8 5d 3f 4b 49 5f 3f 04 fe c5 bd 86 87 3e bf
       0.866339 0.8722121 -0.0966759 -0.7442554
000060 c9 20 32 3e ab 9f ef bd 02 19 73 bc 84 3d 7a 3f
       0.17395319 -0.11700376 -0.014837505 0.97750115
000070 c3 86 a4 3e c2 ea 9e 3e f9 c6 0a be ff 2e d4 be
       0.32134065 0.3103848 -0.13552465 -0.41442105
000080 92 58 55 3e 06 45 19 3f 86 58 c9 3e 4d a5 52 3f
       0.20834568 0.59870946 0.3932535 0.8228348
000090 e1 f5 8c bd 81 51 ae be f8 0b 5e be 6b a5 1d bf
       -0.06882835 -0.34046558 -0.21684253 -0.6158053
0000a0 93 47 9e 3e 7a 8f 72 be 82 9f 20 bf ac 88 38 3f
       0.30913982 -0.23687544 -0.6274339 0.72083545
0000b0 54 53 6d 3f b7 b3 a7 3f 65 e5 73 3f 8c 5e f9 3e
       0.92705274 1.310172 0.95271903 0.48704946
0000c0 61 31 ec 3d 64 21 85 3e ef 53 6e 3f fa e6 1e be
       0.11532856 0.26002038 0.9309682 -0.15517798
0000d0 66 4c b3 be 86 8b 91 bf 7e a3 b2 3f 28 98 31 3f
       -0.35019225 -1.1370704 1.3956144 0.69372797
0000e0 2e 58 39 3f 89 9a f4 be 5a 44 1d 3e 56 01 0a 3f
       0.72400177 -0.4777415 0.15358105 0.5390829
0000f0 77 67 0b bd 2e 44 f4 3e f9 54 36 3f c8 c4 b3 bf
       -0.03403422 0.47708267 0.7122341 -1.4044428
000100 eb 6d 8e 3e e4 b3 a9 3e 59 14 49 3e 71 39 15 3e
       0.27818236 0.33145058 0.19636668 0.14572693
000110 6c 51 a2 3e 5b 1f cf bf 6f a8 83 3f 24 08 47 3f
       0.31702745 -1.6181444 1.0285777 0.77746797
000120 60 1c 56 bd 78 47 b1 be 56 60 bf 3e e5 66 91 3e
       -0.052273154 -0.3462484 0.37378186 0.28398815
000130 38 6a 0c 3e 6a 55 91 3e 80 8c 9f 3e 14 56 55 bc
       0.13712394 0.28385478 0.3116188 -0.013021011
000140 9f c5 46 3c 43 7d 33 3e 5d 00 4c 3f 59 12 8a 3f
       0.0121320775 0.17528252 0.79688054 1.0786849
000150 8a 3f a3 3e 00 00 9e bd 29 d3 b0 3e 55 7b 0a be
       0.31884414 -0.07714844 0.34536102 -0.1352361
000160 73 f9 8d bd 45 92 8d 3e eb c4 21 bf 40 1e ac 3c
       -0.06932344 0.27650657 -0.631911 0.021010518
000170 a7 38 4e 3f 3b fd 46 3f 21 8b 3b 3f 62 d4 fb be
       0.80555195 0.7773015 0.7325917 -0.49185473
000180 77 8d d2 3e 9a 29 55 3f bf 4b 1d be 32 11 bd 3f
       0.41123554 0.83266604 -0.15360926 1.4770873
000190 ec 92 f7 3e 40 ae da 3e fd 1a 0f 3f 53 8d 22 bf
       0.4835428 0.42711067 0.55900556 -0.63496894
0001a0 87 d2 17 3e 01 fe 05 bf 93 63 4e be 58 7d 82 3c
       0.14826404 -0.52340704 -0.20155172 0.01592891
0001b0 91 13 41 3f b5 de e2 3e 00 49 fe bd 3f 1a b2 be
       0.7542048 0.44310537 -0.124162674 -0.3478565
0001c0 dc 11 d9 3e a2 c8 7f 3f 8d da 30 bd 3f 11 9c 3d
       0.42396438 0.99915516 -0.043177176 0.07620477
0001d0 60 4d 7e 3d 06 c1 7c 3f 5e 9f 95 3e 42 9d 6c bf
       0.06208551 0.9873203 0.2922315 -0.92427456
0001e0 a6 15 03 3e a2 8b d0 3f c9 de bd bd 11 6a e8 bd
       0.12801227 1.6292613 -0.092710085 -0.113483556
0001f0 07 47 bf 3d 35 8a 54 3d e6 bc 13 3d b4 16 10 3e
       0.09339719 0.051889617 0.03606882 0.1407116
000200 3f 2f 10 be e5 6a 45 3e 01 50 16 bf 2c bc 3c bd
       -0.14080523 0.19279058 -0.58715826 -0.046077892
000210 97 d7 2d 3f 51 d0 70 be e3 4a 39 be b1 13 b6 3e
       0.6790709 -0.23516966 -0.18094973 0.35561898
000220 8a 82 75 be cd b2 bb 3e b9 29 a7 3c d1 e8 3a 3e
       -0.23975578 0.36659852 0.020405637 0.18252875
000230 55 cf 3d 3f 4f 1d 62 be 78 58 3a be 65 36 ac 3f
       0.7414449 -0.22081493 -0.1819781 1.34541
000240 0b 8f c2 3d 6e e8 d1 3d fb aa 6e 3f ba 38 94 3f
       0.094999395 0.102494106 0.93229645 1.1579812
000250 aa 52 12 3f 89 31 33 3e 59 5e 86 bf 45 9c f1 3e
       0.57157385 0.17499365 -1.0497543 0.47189537
000260 94 c7 93 3e e6 01 0f 3e 85 9a 97 3f 68 03 be 3f
       0.28863204 0.13965568 1.1844031 1.484479
000270 9a 16 f1 bd c2 37 43 3f 0e e6 7f 3e 2f d9 91 3f
       -0.11771889 0.76256955 0.24990103 1.1394404
000280 c0 cf 42 3f 94 4c 71 bf 03 ce 77 3f 16 f0 8d 3e
       0.7609825 -0.94257474 0.96798724 0.27722234
000290 2a 1e c9 3e ba 8b a1 3e 73 34 fe 3e a6 41 74 bf
       0.39280826 0.31551915 0.4964939 -0.9541267
0002a0 36 b6 14 3f c2 73 03 3e 78 3f f4 3e 27 53 50 3f
       0.5809053 0.12837127 0.47704673 0.8137688
0002b0 b6 76 f8 bd 1d 3d 43 3e 26 7e 42 3e 5d 06 67 bf
       -0.12132017 0.19066282 0.18993434 -0.90244085
0002c0 3c f7 7d 3e 89 48 67 3e 68 63 ae 3f 64 db 9f 3e
       0.24801344 0.22586264 1.3624086 0.3122207
0002d0 bc 2e 0f bc 17 e1 cc 3e fe 67 a4 bd 42 c9 1b bf
       -0.00873917 0.4001548 -0.080276474 -0.6085397
0002e0 58 d0 3c 3f 86 28 fb 3e 70 cd 69 3f 73 30 d0 3e
       0.7375541 0.49054354 0.913291 0.40661964
0002f0 6b 45 87 3d a4 fe 42 3f 36 da 4f 3e 22 9f b2 be
       0.06605037 0.761698 0.20298085 -0.34887034
000300 b1 81 9d 3f 2d 90 2a 3f 5f b7 a1 3e 0c fd 0d bf
       1.2305204 0.66626245 0.31585214 -0.55464244
000310 51 71 31 3f fb 02 bf 3d fe c6 a9 be e1 83 fe be
       0.6931353 0.0932674 -0.33159631 -0.4970999

arith.constant2 f4 [31]
000000 ed 83 9b be 91 73 1c be 87 16 56 bf 6a 24 27 3f
       -0.3037409 -0.1527846 -0.83628124 0.6528994
000010 ce f9 38 bd 21 35 00 3f 6e f6 d5 bd 74 70 95 3e
       -0.045160107 0.5008107 -0.10447393 0.29187357
000020 c3 69 41 3f e1 5c ba 3e ab 51 a9 bd 2f 35 1c 3f
       0.75552005 0.36398986 -0.0826753 0.6101865
000030 a5 80 35 bd c6 d3 5a bd e7 7d ee be a3 50 c7 bd
       -0.044312138 -0.05342462 -0.4658043 -0.09732177
000040 17 66 8c 3e a3 2f b5 3e 8f e5 0f 3e d4 0a 2f 3e
       0.27421638 0.35387906 0.14052413 0.17093974
000050 5c d4 19 3f e1 db 80 be af 1e f5 bd 92 19 be 3e
       0.6008966 -0.25167754 -0.11968743 0.37128884
000060 f8 62 61 be 99 18 9e 3e e4 25 68 bf 5e 12 33 bf
       -0.2201041 0.30878142 -0.90682817 -0.699499
000070 1d 01 61 bf 53 a5 2c bf 5e 38 21 be
       -0.87892324 -0.67439765 -0.15744159

sequential_1/dense_1_2/BiasAdd/ReadVariableOp f4 [10]
000000 70 95 34 bf 28 50 31 3f 0f 11 8e 3f 8d 17 2e 3f
       -0.70540524 0.69262934 1.1098956 0.68004686
000010 18 1d 0b bf a1 2a 39 3f a2 38 85 3f 00 64 4a bc
       -0.5434127 0.7233067 1.0407908 -0.012352943
000020 36 4f 33 3f bf 13 8f 3f
       0.7004274 1.1177901

sequential_1/dense_1/BiasAdd/ReadVariableOp f4 [20]
000000 51 e1 bb be 99 9f fa 3d c3 14 c8 be 99 f1 57 3e
       -0.3669534 0.12237472 -0.3907834 0.21088256
000010 76 84 ad 3e 44 81 2f 3f 73 81 67 3e ca 19 20 3e
       0.33890122 0.6855662 0.22607975 0.15634838
000020 de c9 1c be 81 ab 23 bf e3 75 3a 3f e1 06 02 3d
       -0.15311381 -0.6393357 0.7283613 0.03174484
000030 f6 d4 69 bf 3e 92 ad bf 60 0a 35 3e f7 eb f8 3d
       -0.9134058 -1.3560255 0.17679739 0.12154382
000040 6e 2b 4b bd cb 57 57 bf b0 92 41 3f ae 0e 66 3e
       -0.049601965 -0.84118336 0.7561445 0.22466537

sequential_1/dense_1/MatMul f4 [20, 42]
000000 c1 82 8a be 3e e7 1b 3e 62 fa d6 3e 53 ac 41 3f
       -0.27052882 0.1522493 0.41987902 0.7565357
000010 0e a5 ab 3d 98 f5 07 3f f1 4d 6e be d7 5e 9f 3e
       0.08381091 0.5310912 -0.2327192 0.31127045
000020 87 c1 e4 be 4b 53 67 3e af 1f b6 3d f4 b4 14 3b
       -0.446789 0.22590367 0.08892762 0.0022690864
000030 d4 18 f0 3c 9d 6a 50 bd 27 d1 c0 bd 2d 18 82 be
       0.029308714 -0.050882924 -0.09414893 -0.2540907
000040 b9 1b 2e bf d6 b2 a0 be 59 28 3f bd 11 54 1b 3d
       -0.6801105 -0.3138644 -0.046669338 0.03792197
000050 d5 0f 13 bf c6 b0 9b bd a3 dc 97 bf b8 8d ff be
       -0.5744603 -0.07602076 -1.1864208 -0.4991281
000060 c6 aa 93 bf 18 74 8f be 9f 4f 90 bf 9f de 90 bc
       -1.1536491 -0.2801826 -1.1274298 -0.017684279
000070 1b 91 28 bf b0 49 85 bd b5 85 d4 be 85 8f 25 be
       -0.65846413 -0.065081954 -0.4150826 -0.1616803
000080 20 f7 ae be 7b c0 13 bf 33 87 c0 be bd 79 a7 3d
       -0.34172916 -0.57715577 -0.3760315 0.081775166
000090 ed d9 b1 be af 89 c1 3d 9e 9a 9b be ab 40 a1 3e
       -0.34736577 0.09450089 -0.303914 0.3149465
0000a0 1f 9f ff be 9b c5 de 3e 18 34 87 be a0 c1 a2 bd
       -0.49926087 0.43510136 -0.26406932 -0.07947087
0000b0 57 ba a0 3e 1e d4 b3 3f bb 7d 81 3e cb c2 06 3f
       0.31392166 1.4049108 0.25291237 0.5264098
0000c0 60 c5 12 3e 18 e6 bd 3e 23 22 0c 3e 12 e5 9b 3e
       0.14333105 0.3708961 0.13684897 0.30448204
0000d0 a9 38 c3 3e 19 48 1e 3e ec ef 8e 3e 37 7c d6 3d
       0.38129166 0.1545719 0.2791742 0.10472911
0000e0 68 e6 a7 3d 0c 69 7d 3d 92 22 51 3d a1 43 c2 3c
       0.081982434 0.06186776 0.05105836 0.023713889
0000f0 eb d3 c8 3e b7 a1 c6 3d 96 1e bd 3d 2c 3a b4 3d
       0.3922418 0.096988134 0.092343494 0.08800158
000100 0f 06 26 be fe 4b fe 3b 6e 2f d1 be 87 1a b4 bd
       -0.16213249 0.007760524 -0.40856498 -0.08794122
000110 8c 1b b2 be b4 4f c1 3d e2 ea 17 be b9 26 53 3d
       -0.34786642 0.0943903 -0.14835694 0.0515506
000120 af 69 56 3f 69 35 f5 be 42 97 69 3f 7c 61 e2 be
       0.8375501 -0.4789231 0.91246426 -0.44215
000130 f4 e1 eb be 54 af 0b 3e 75 9a 48 3d 13 1c 10 be
       -0.46070826 0.13641101 0.048975427 -0.1407321
000140 1b b8 2b 3f 9f 2d 33 bf aa 15 33 3f 17 bb 81 bf
       0.670778 -0.6999149 0.6995493 -1.013522
000150 8e 8a 78 be d0 81 b4 3d af ce 17 bf c4 1e 8a bf
       -0.24271604 0.08813822 -0.5929975 -1.0790639
000160 c2 16 cc be 24 2a 19 bf 54 cc 08 bf 06 41 ea be
       -0.39861113 -0.59829926 -0.5343678 -0.45752734
000170 5b 06 59 bf 58 2e 21 bf 98 fb 03 bf 60 6e b3 3c
       -0.8477532 -0.6296134 -0.51555777 0.021903217
000180 77 9e e6 be 93 3f 07 3d 5b 76 fd bd 4b 64 e1 3d
       -0.45042774 0.033019613 -0.1237609 0.110054575
000190 a5 2d 83 3e 56 4b 07 3e 52 b3 36 bf 3f 59 14 3c
       0.25620762 0.13212332 -0.7136737 0.009054481
0001a0 76 62 cb be cf ca e4 3d a9 59 47 3e 1c 04 69 3e
       -0.39723557 0.11171495 0.19467796 0.22755474
0001b0 bb d3 56 3e 9b 3e 41 3e 07 f7 da be db 32 e3 3d
       0.20979206 0.18871538 -0.42766592 0.11093684
0001c0 f6 74 30 be da 12 20 3e ac bd 2c 3e f5 dd 89 3e
       -0.17232117 0.15632191 0.16869229 0.26927152
0001d0 09 85 c9 3e 5c 14 67 3e 53 78 ff 3d 05 00 e5 3d
       0.3935931 0.2256636 0.12474122 0.11181644
0001e0 23 54 07 3e 31 17 c6 3d 7b 1c 6c 3e 8b f1 6e 3e
       0.1321569 0.09672392 0.2305774 0.23334329
0001f0 99 6d 33 3f a7 1e aa 3e 24 26 ab 3d 1d 2a 00 be
       0.7008911 0.3322651 0.08356884 -0.12516065
000200 64 b6 e9 3d 42 9d 47 bf 68 22 61 3e 49 f6 07 bf
       0.114117414 -0.7797433 0.21985781 -0.53110176
000210 07 54 75 3d d7 cc 39 bf f5 a4 1f be 1e ed 2b bf
       0.059894588 -0.72578186 -0.1559027 -0.6715869
000220 6c 81 d0 3f ab dd b9 bc 96 f2 2d 3f 68 6d 8f 3d
       1.6289496 -0.022688707 0.6794828 0.070032895
000230 9f aa a2 3e c8 da fe bc a4 15 8b 3e be 1a 1b be
       0.317708 -0.031110182 0.27164948 -0.1514692
000240 66 9c a9 3f 4c f0 4d 3e 09 27 3a 3e dc b5 11 3e
       1.3250854 0.20111197 0.18178953 0.1422953
000250 e3 79 b2 3e ac 20 86 bd 34 f2 f6 3e df 4f a5 be
       0.34858617 -0.065492004 0.4823166 -0.322875
000260 25 fc 59 3f b3 af 9b 3e 0c 57 93 be 97 95 4d 3e
       0.8515037 0.30407485 -0.2877735 0.20076595
000270 c0 73 f4 be 6d 4f c1 3d ac 74 ee be 2b 76 06 be
       -0.4774456 0.094389774 -0.4657339 -0.13131015
000280 20 16 b5 3e b1 a7 b7 3e 3c 76 23 bf a7 8c 82 3e
       0.35368443 0.35870126 -0.63852286 0.25497934
000290 fa 29 5e bf 97 63 d5 3d e7 64 4b bf ef e1 b0 3d
       -0.867828 0.10419386 -0.7945084 0.086368434
0002a0 f8 3a 97 3e fc b1 52 3e 23 5e 70 be 0c bf 39 bf
       0.29537177 0.20575708 -0.2347341 -0.7255714
0002b0 47 9b a5 3d cb 20 5e be 69 8f f9 3e d9 bc 53 be
       0.080862574 -0.21692197 0.48742226 -0.20677508
0002c0 a3 99 0a 3f 50 65 81 be e8 cc 55 be c6 14 29 be
       0.5414068 -0.25272608 -0.20878947 -0.1651183
0002d0 52 ef 2f be bd 72 7a bd 9d 7f 70 bd db 68 ab be
       -0.17181137 -0.06114458 -0.05871545 -0.33478436
0002e0 aa 2f 36 3d 91 d9 df be 87 9a df 3e ad b9 63 be
       0.04447905 -0.43720677 0.43672583 -0.22238798
0002f0 3a 41 36 3f b9 cc e9 bd 8b ab 11 3f 80 11 75 bd
       0.7119328 -0.11416001 0.5690238 -0.059831142
000300 9e c6 56 3f 54 2d 0c bd 39 92 b6 3f b3 f1 e5 bd
       0.83896816 -0.034222916 1.4263374 -0.11227741
000310 00 e9 8e 3f 09 09 cb 3d bf 1e 8d 3f 15 89 b4 3e
       1.1164856 0.09913833 1.1025008 0.35260835
000320 ca c6 c6 3e da d8 1e 3f ff c3 05 3f 51 03 54 3c
       0.3882354 0.6204964 0.5225219 0.012940244
000330 85 04 5a 3e d3 51 2a 3e 4f af 62 3e 30 17 a5 3e
       0.21290787 0.16632776 0.22137187 0.32244253
000340 5e e8 8b bd 41 4d 13 3f fa 0b 83 3e 38 ef 45 3e
       -0.0683143 0.57539755 0.25595075 0.19329536
000350 e7 7a 15 3e 22 11 e5 3e 5b 8e 60 3b b9 49 66 3e
       0.14597665 0.44739634 0.0034264538 0.2248906
000360 ee ed fa 3e 93 e4 e1 3d 19 5d 96 3f dc 65 35 3d
       0.4900965 0.11029925 1.1747161 0.044286594
000370 91 ef a0 bc c3 af af 3b 88 08 b1 bd cb 1f 21 be
       -0.019645484 0.0053615286 -0.08644205 -0.15734784
000380 e1 8a ca be 63 0b 3f be 49 9d 21 bf e9 59 98 be
       -0.3955908 -0.18656687 -0.63130623 -0.29756096
000390 bb d3 6a 3f d7 0c 9f 3b 02 f1 50 3f 7b fc 40 3b
       0.91729325 0.0048538256 0.8161775 0.0029447365
0003a0 0b e8 1e 3f c9 57 b1 bd ca 61 82 3f d0 7a 2c be
       0.6207282 -0.08659322 1.0186093 -0.16843724
0003b0 f0 79 68 3f c6 05 98 bd 4c 98 ee 3e 41 5f 48 3d
       0.9081106 -0.07422976 0.46600568 0.048918966
0003c0 03 1f 80 3e 03 c0 4f 3e e3 66 80 3d 04 b3 ba 3e
       0.2502366 0.2028809 0.06269624 0.36464703
0003d0 0e 84 41 3e e8 b3 c0 3c 11 a1 99 3c 23 5a 21 3e
       0.18898031 0.023523286 0.01875356 0.1575704
0003e0 c3 5f 86 be 77 8f 81 3e 51 01 f2 be 8e f4 c6 3e
       -0.26244935 0.25304767 -0.4726663 0.38858455
0003f0 37 21 33 be f8 82 7d 3e fe 75 f2 bd 5a 71 3a bf
       -0.17493139 0.24756992 -0.118389115 -0.7282921
