backend/model/keypoint_classifier/keypoint_classifier.tflite (tflite, 7540 bytes, 6 tensors)

arith.constant f4 [26, 10]
000000 ed 47 14 3f db 7f fe bd 6d bd 8e be 26 18 86 be
       0.5792225 -0.1242673 -0.27878895 -0.261903
000010 a8 f1 04 3d 12 2b 82 3e 6e 45 39 3f 85 10 e1 be
       0.032457024 0.25423485 0.72371566 -0.43957916
000020 7b d6 b1 3e 7e 3c c8 3d e0 cc a1 3e 55 c2 d2 3e
       0.34733948 0.09777163 0.3160162 0.4116389
000030 57 a7 1e 3f 2e b1 83 bd 43 9e 43 be 68 16 3f 3e
       0.6197409 -0.06430279 -0.19103341 0.18660891
000040 0d 35 3d 3e c0 e8 90 3e 8e be 5d be 10 12 eb be
       0.18477269 0.28302574 -0.21654722 -0.45912218
000050 43 cc 84 be 2c bf ab 3e f6 86 37 be 30 8f be 38
       -0.2593709 0.3354429 -0.17922577 9.086577e-05
000060 8a 4e 99 be fb 19 b1 be 8d cf 42 3e e4 09 6f 3e
       -0.29942733 -0.34590134 0.19024487 0.23343617
000070 22 a6 ec 3e 4f d1 99 3d 1a 41 fb 3e b6 c0 19 be
       0.462205 0.075106256 0.49073106 -0.1501492
000080 fe 2a 04 3f 73 84 dd be 98 42 ac 3d 5c 92 ab 3e
       0.516281 -0.43265113 0.08411139 0.335101
000090 17 04 ac be c2 dd 8d 3e 2d f5 bb 3e ea 2d 3a 3e
       -0.3359687 0.2770825 0.36710492 0.18181577
0000a0 1b 3c 76 bd ac 31 0b bf 20 28 63 3d c1 2f 5d be
       -0.060115915 -0.5437267 0.055458188 -0.21600248
0000b0 e0 bd 68 be 9d ef 9a be 0c 3c 02 3e 5d 40 dd be
       -0.22728682 -0.30260935 0.12718219 -0.43213168
0000c0 77 dc a7 be a2 d1 00 3e f3 df a5 3d 8a 88 51 be
       -0.3278539 0.12579969 0.080993555 -0.20462242
0000d0 ab db 14 bf d2 aa 57 be dd b5 82 be fe 66 65 bd
       -0.58147687 -0.21061257 -0.25529376 -0.056006424
0000e0 75 67 11 bf 0f dd 2a bf 13 d6 1a be ac 69 a9 bb
       -0.5679849 -0.6674356 -0.15120725 -0.005170068
0000f0 12 fc a3 be 5a b7 33 be 40 ec 18 bf 72 ef f8 be
       -0.32028252 -0.17550412 -0.5973549 -0.48620182
000100 33 3d de bd 10 8c 6b bd dd 80 e0 be 44 85 e8 be
       -0.108515166 -0.05750662 -0.43848315 -0.45414174
000110 d0 c2 3f be 2d f5 80 be 0e 6a 2f 3d 21 28 01 bf
       -0.18726659 -0.25187054 0.04282575 -0.50451857
000120 d5 06 60 be 35 8a d7 be 40 42 2b bc be 00 1f bf
       -0.21877606 -0.4209763 -0.010452807 -0.6211051
000130 33 ad 12 3e 48 cb 63 be 1a 92 10 bd 92 40 16 bf
       0.14323883 -0.22245514 -0.035295583 -0.58692276
000140 8f 56 2a 3d 48 33 01 bf d4 2f 42 bd 86 b2 08 3e
       0.041586455 -0.50468874 -0.047408894 0.13349351
000150 14 c1 fd 3d 3e b7 be be f9 8b 08 bf cb 9f e6 be
       0.12390342 -0.37249178 -0.5333858 -0.45043787
000160 24 bd bf be 9a e6 0d bf 40 17 9b 3d 20 f4 a5 be
       -0.3744899 -0.55429995 0.07572794 -0.32412815
000170 b2 b2 fb bc d3 c6 09 bf 9c f4 28 be f0 2d 2b bf
       -0.030724857 -0.53819007 -0.16499561 -0.6686697
000180 1c f6 1a be 96 66 79 be 8b d7 b1 3d 17 2a e1 be
       -0.15132946 -0.2435554 0.0868369 -0.43977425
000190 12 3c b6 3d f8 44 f3 be f6 16 e7 be 60 a0 bf be
       0.08898176 -0.47513556 -0.45134705 -0.37427044
0001a0 ba 3a ed 3c af e4 38 be e9 2d 06 bd 42 0d 72 be
       0.028958667 -0.18055986 -0.032758627 -0.2363787
0001b0 e2 8c 65 3d c6 16 18 be 5e 22 c4 be d7 97 e5 bd
       0.05604256 -0.14852437 -0.3830747 -0.11210602
0001c0 5c ed 51 3d a5 1d fd be b9 8e ac 3d 31 35 82 be
       0.051251754 -0.4943668 0.0842566 -0.25431207
0001d0 f1 40 2e bd 75 66 0c bf 85 61 bc be 5f 21 cb be
       -0.0425424 -0.5484384 -0.36793151 -0.39673898
0001e0 f5 2b 47 3e 52 6f c1 be 3c 74 11 bf d2 20 31 bd
       0.19450362 -0.37780243 -0.56817985 -0.04324419
0001f0 59 d4 e8 be ab 21 8b bd 70 4e 03 3e 0d d8 39 bf
       -0.45474508 -0.06793531 0.1282289 -0.7259529
000200 01 b7 aa bd 16 d0 aa be 2d 0a 17 3e 61 f8 c1 be
       -0.083356865 -0.33361882 0.14749976 -0.3788481
000210 78 17 e4 be 16 fa 0d bf e2 b7 eb bd d3 fc 19 bc
       -0.44549155 -0.55459726 -0.11509682 -0.009398657
000220 fe 3f f3 be 4e 0f 1c bf ef 70 9e bd 4a b5 a9 bd
       -0.4750976 -0.60960853 -0.07736384 -0.08286531
000230 05 53 72 be b0 a4 fa be 7a 08 5d be 46 5d bd bd
       -0.23664482 -0.48953772 -0.21585265 -0.09246306
000240 6e 5a 93 3d 31 75 3c bd a9 d2 e9 bd 7e 9a c7 be
       0.071949825 -0.0460102 -0.11417133 -0.38985056
000250 f5 c8 64 be 2a dc 8d 3d f7 e2 4c be b7 f4 0d bf
       -0.22342284 0.069267586 -0.20008455 -0.5545153
000260 94 f6 6d be 9d e4 9d be 22 6d c9 be 85 09 7f be
       -0.23238593 -0.3083848 -0.39341074 -0.24905975
000270 dc f2 15 3e 3c 86 0f bf b6 4b e6 3d a3 de a8 bd
       0.14643425 -0.560642 0.112449095 -0.082455896
000280 e2 e0 5b be 60 d6 7e be 4b 1d 9a be f9 35 45 be
       -0.21472505 -0.24886465 -0.30100474 -0.1925887
000290 60 94 c2 be 84 3f 1a be 89 7a 2e 3d 4d c0 15 bf
       -0.38003826 -0.15063292 0.042597327 -0.5849655
0002a0 91 e3 d7 be 32 f6 05 be 33 d0 b4 bd 03 f9 00 be
       -0.42165807 -0.13082197 -0.08828773 -0.1259499
0002b0 93 1b e1 be d7 8d c7 be 61 a4 9d be 37 69 5a 3d
       -0.4396635 -0.38975403 -0.30789474 0.053322997
0002c0 a4 fc bb 3c 81 24 4c bf 78 55 a2 3d 9a 7a 3e be
       0.022947617 -0.797432 0.07926458 -0.18601456
0002d0 e4 0f b9 be 0c 0a 9a bd 88 08 39 bf d4 d8 92 3d
       -0.36144936 -0.075214475 -0.7227864 0.07170263
0002e0 86 69 e5 bd 15 b5 29 bc f0 ae 52 ba 77 72 a0 be
       -0.112017676 -0.010358115 -0.0008036932 -0.3133733
0002f0 da 4c 3e 3b 0a 44 6f 3d 67 e4 20 3d 3b 7a f6 bd
       0.0029037506 0.058414496 0.03928032 -0.12035032
000300 60 81 9c bd e5 31 32 bd e7 bb b3 3d b4 2a d5 be
       -0.07641864 -0.043504614 0.08776074 -0.41634142
000310 0f 84 74 be 02 95 2d bf 8f a0 22 3d c8 0a a0 3c
       -0.23878501 -0.6780549 0.0397039 0.01953639
000320 66 a8 7c be 08 ea ce be 59 4f 4d be e5 c7 6f bb
       -0.24673614 -0.40412927 -0.200498 -0.0036587652
000330 2b a6 e0 3d 7a 58 f9 be 3e 66 23 be 3f df 16 bf
       0.10969194 -0.48700315 -0.15956971 -0.58934397
000340 17 13 90 bd 56 85 71 be a9 5a 7a be f7 13 0b bf
       -0.07034891 -0.2358602 -0.24448647 -0.5432734
000350 66 40 b1 3b 34 ae df bb 85 5d 45 bd 45 27 8d bb
       0.005409288 -0.0068261866 -0.04818489 -0.00430766
000360 78 ca d0 be f8 59 45 bf 1c 72 d8 be 7d ff f3 bb
       -0.4077947 -0.77090406 -0.4227456 -0.007446228
000370 18 82 b2 bd b5 4e 68 be db 5e 01 bf 03 fe d9 be
       -0.0871622 -0.22686274 -0.5053536 -0.42576608
000380 0c 2c d2 be 47 91 d8 be 6a a9 34 3e 31 69 42 bf
       -0.4104923 -0.42298338 0.17642751 -0.7594176
000390 9a b4 b5 be 36 04 06 bf 48 40 81 be 0e 43 20 bf
       -0.3548935 -0.52350175 -0.25244355 -0.6260232
0003a0 9c 91 e9 be 94 d0 fe be 30 0f 9f bc 62 b5 6e bd
       -0.45618904 -0.49768507 -0.019416422 -0.05827845
0003b0 7d 56 ae 3d 20 c7 74 be 4a c0 67 3e 34 e4 15 bf
       0.0851259 -0.23904085 0.22631946 -0.58551335
0003c0 13 11 64 be a2 da 10 bf ea 94 38 be bf e7 6d be
       -0.22272138 -0.5658361 -0.18025556 -0.23232935
0003d0 73 5a ea bd 5c bf e1 be 86 cb 00 3e 43 e7 40 bf
       -0.11443033 -0.44091308 0.12577638 -0.7535288
0003e0 5a 53 07 be db 29 44 be c4 e7 fd be db 67 aa be
       -0.1321539 -0.19156592 -0.49590886 -0.3328236
0003f0 70 a1 95 bd df 9e ad be 38 56 81 3e 16 3f b3 3d
       -0.073061824 -0.33910272 0.25261092 0.08752267

arith.constant1 f4 [10, 20]
000000 d6 4f 3f 3f ee 5c 96 3e c2 79 80 3e e5 c5 a4 3e
       0.74731195 0.29367775 0.25092894 0.32182232
000010 51 7a c7 3e 9e ae 9a 3e 5e cd b9 be e4 cf 90 be
       0.38960508 0.30211347 -0.36289495 -0.28283608
000020 ea 30 54 3e a9 1d ec 3d 67 d5 f2 3e 7e d1 03 3f
       0.20721784 0.11529095 0.47428438 0.51491535
000030 f4 88 29 bb f0 49 fb be 17 29 d6 3e 36 2e 34 3f
       -0.0025868984 -0.49079847 0.41828224 0.7038301
000040 5c 89 b1 bc 32 4f 44 bf e0 1d c9 3e 93 d9 47 3f
       -0.021671943 -0.7668334 0.39280605 0.78066367
000050 55 66 24 bf 8a ba 0f bf 19 a4 ed 3e 51 51 c1 bd
       -0.64218646 -0.5614401 0.4641426 -0.09439338
000060 55 89 fc 3d 15 25 75 3e e7 4d b9 3e e1 78 c6 bd
       0.123308815 0.23939927 0.36192247 -0.096910246
000070 9a 70 df 3a 1a 22 e1 3e 99 5f 4f 3e 52 61 e6 3e
       0.0017047108 0.4397133 0.20251311 0.44996125
000080 5e ee fc 3e b9 96 b2 3d d4 fa 2c 3f 3a 19 e1 be
       0.4940061 0.08720154 0.67570233 -0.4396456
000090 30 ce 1e 3f 68 d0 80 3e 45 01 e4 3e 41 d4 5e be
       0.6203337 0.25159 0.4453222 -0.21760656
0000a0 f4 dd 8e be 20 d8 be bd 97 56 13 3d cd 09 36 3d
       -0.27903712 -0.09318566 0.03597125 0.04444294
0000b0 8b 0a 57 3f b8 8d cf bd 3d 10 9a 3e 40 aa b1 be
       0.8400046 -0.101344526 0.30090514 -0.34700203
0000c0 92 2a 97 be c3 c3 87 3e 44 a8 6a 3e 58 99 2a 3e
       -0.29524666 0.26516542 0.2291575 0.16660058
0000d0 7f 09 b3 bd 90 4b 19 be 16 50 30 be d9 1f 20 3f
       -0.087420456 -0.14970231 -0.1721805 0.62548596
0000e0 89 61 82 3e bc 1e 43 bf 0c 3a d9 3e c6 f8 18 be
       0.25465038 -0.7621877 0.424271 -0.1493865
0000f0 d7 41 f1 be 2c 18 6c bd eb 4b 85 be 46 cc 50 be
       -0.47120544 -0.05764024 -0.26034483 -0.20390424
000100 9d 0f 29 3e 0f a3 3e 3e f5 65 1f be d7 9b 4a be
       0.16509862 0.1861689 -0.15566237 -0.1978601
000110 ba 10 ee 3d 6c d0 d2 3e 00 c8 c4 3d 6d a7 88 3e
       0.11624284 0.41174638 0.096084595 0.26690236
000120 b2 83 97 be e2 a0 3e be eb 61 52 3e 46 f0 d2 be
       -0.29592663 -0.1861606 0.20545165 -0.4119894
000130 ba 0d 92 be 2e e6 50 3e 0e 86 32 be 7d f6 0c bf
       -0.28526098 0.20400307 -0.1743395 -0.5506361
000140 7f a5 b0 3e 8e 86 86 3e cf 20 54 3d c8 54 d4 be
       0.34501263 0.26274532 0.0517891 -0.41470933
000150 34 18 81 be 7a 8b 28 3e be 2b a3 be 7c f1 86 3e
       -0.25213778 0.16459456 -0.3186931 0.26356113
000160 6e b7 7c 3e 0e d7 a9 be e6 44 10 be f3 f8 7d be
       0.24679348 -0.33171886 -0.14088783 -0.24801998
000170 50 4c f7 3d 2b ed 36 3e 34 79 9b bd 20 a0 41 3f
       0.12075102 0.1786391 -0.07591477 0.75634956
000180 4e c1 27 be 9a 1d 03 bf 84 eb 78 3e a2 66 df be
       -0.16382334 -0.51217043 0.24308592 -0.4363299
000190 76 48 d0 3d 40 3f 12 3f 3b fd 8a bc 46 9a 3a 3e
       0.10170071 0.5712776 -0.016966453 0.18222913
0001a0 b2 cd c6 3c 40 77 e5 be bf b3 5a be 9b 42 ae 3d
       0.024268005 -0.44817543 -0.2135763 0.08508798
0001b0 57 2b ca be 27 b6 9c 3d 04 4b cc 3e 46 7b 35 3f
       -0.3948619 0.0765193 0.39900982 0.70891225
0001c0 1a 2b 80 be 66 7c 5a be ad 80 8f 3e bb f7 5f 3f
       -0.25032884 -0.21336517 0.2802786 0.8748738
0001d0 d7 33 f8 bb 88 5d 44 be f3 09 c9 3e c3 a5 f2 3d
       -0.007574539 -0.19176304 0.39265403 0.11848023
0001e0 70 5f 27 3d b9 04 47 3c 4b 2d bf 3d d1 01 e6 3e
       0.0408625 0.012147122 0.09334811 0.4492326
0001f0 c2 a8 02 bf 6d 02 d1 3e 8d 06 1a 3e ae c0 96 3d
       -0.51038754 0.40822163 0.15041561 0.073609695
000200 79 71 39 be 52 f1 9c 3e a5 9c d0 be da 6b 15 3f
       -0.18109693 0.30652863 -0.4074451 0.58367693
000210 e5 69 4e 3f 95 bb a7 be f7 dc 6d 3c f2 b3 85 be
       0.8063033 -0.327603 0.014518014 -0.2611385
000220 fe 96 a6 3e dc fc 17 bd 8c 00 97 3e 0a 92 12 3f
       0.32537073 -0.03710638 0.29492605 0.5725409
000230 50 5a a6 be ea cf c1 3e af 2d de 39 75 b0 fd bd
       -0.32490778 0.37853938 0.00042377177 -0.12387172
000240 25 fd 5d 3e 6b e6 d1 3b 28 c3 11 3f f3 71 51 3e
       0.21678598 0.006405642 0.5693841 0.20453624
000250 2d 9e 7b 3c 01 b1 3f 3e 6d fc 24 3f 80 fc 2f be
       0.015357536 0.18719865 0.6444767 -0.17186165
000260 a8 fd 91 bd a2 db bb 3d b5 e8 1f 3e 3a e6 83 3e
       -0.07128459 0.09172751 0.15616114 0.25761586
000270 d8 d3 18 3f 27 7d cf bd 14 48 4a b8 6f ca dd be
       0.5969825 -0.10131293 -4.822768e-05 -0.43318507
000280 49 f2 7e 3f a0 ad 09 3f d6 db c1 3e ed 28 f3 3e
       0.9958845 0.53780556 0.37863034 0.4749216
000290 58 b3 d1 be 69 eb ac bd 50 77 7b 3e fd 05 08 be
       -0.4095714 -0.084433384 0.24557233 -0.13283534
0002a0 4b de 1f 3e de b7 fe 3e a0 25 98 be 61 a2 bb 3c
       0.15612142 0.49749655 -0.29716206 0.022904577
0002b0 0e 0f e2 3e b2 d6 53 3f a1 72 92 3e f9 43 6d 3e
       0.4415211 0.82749474 0.2860308 0.23170461
0002c0 2f 5f f7 3e 63 a8 a5 3e 08 ba c6 bd 25 b2 32 3f
       0.48314807 0.3235503 -0.097034514 0.69803077
0002d0 df b2 68 3f 66 e3 2b 3f 86 03 bc bd 44 f0 a4 be
       0.90897936 0.6714386 -0.091803595 -0.32214558
0002e0 0a e0 c5 be b1 56 bb bd f8 e9 d4 3d 43 8d 9d 3e
       -0.3864749 -0.091473944 0.103961885 0.30771837
0002f0 7a b5 b5 3d 84 4c 82 3e d0 0d 85 be d4 c5 4f be
       0.088725045 0.25449002 -0.259871 -0.20290309
000300 4b 9a ab bd 60 80 47 3d c8 45 5a 3e 09 7d 4b 3f
       -0.083790384 0.048706412 0.21315682 0.79487664
000310 6d e3 a7 3e 00 10 ad 3e a5 9e 35 be 22 c7 0f be
       0.327907 0.3380127 -0.177363 -0.14040807

arith.constant2 f4 [26]
000000 b0 b8 ee bd e2 1a 0b 3e 2d 56 1c 3e 8f 26 65 3e
       -0.1165632 0.13584474 0.15267248 0.2237799
000010 fe 39 e6 bd 7b e6 0e be 2d cf f0 bd 63 37 01 be
       -0.1124153 -0.13955109 -0.11758266 -0.12618785
000020 f2 04 cf bd cf 50 24 be 21 c7 0e be c0 fc f9 bd
       -0.10108365 -0.16046451 -0.13943149 -0.12206411
000030 1b c1 13 be 0e 3f 08 be f5 d4 da bd b9 eb ff bd
       -0.14429133 -0.13305303 -0.106851496 -0.124961324
000040 06 57 e9 bd a8 c2 35 be b9 00 28 be f9 1c 35 be
       -0.113935515 -0.17750037 -0.16406526 -0.17686833
000050 59 79 e1 bd b2 49 c0 bd 3b 43 f2 bd eb 1d f7 bd
       -0.11009473 -0.09389056 -0.118292294 -0.12066253
000060 3d ae d3 bd d5 87 c4 bd
       -0.10335968 -0.095962204

arith.constant3 f4 [10]
000000 4c ed 44 3e 6d fe 85 3e b2 78 df 3e 67 29 23 bd
       0.19231147 0.26170674 0.4364677 -0.039834406
000010 50 fa 8b bd 79 45 79 3e 77 73 80 be d5 97 15 3f
       -0.06834853 0.24342908 -0.25088093 0.584348
000020 da c8 86 3e fb bd 3f 3d
       0.26325113 0.04681204

sequential_4_1/dense_12_1/BiasAdd/ReadVariableOp f4 [20]
000000 fc 5b 2e 3e ba c0 04 3e 7e 99 a9 3d 0d 2c f1 bd
       0.17027277 0.12964144 0.082812294 -0.1177598
000010 2d 9d 94 3e 58 4e 26 bd fd bd 03 ba 9a c6 87 bd
       0.29026166 -0.04060206 -0.0005025564 -0.06629677
000020 d0 e1 9a bd 92 26 41 3e 86 d1 b0 3e 3d 05 c5 3d
       -0.075626016 0.1886237 0.34534854 0.0962014
000030 d2 ba 2f be 0a 86 02 be a4 31 2d 3e a0 31 ac 3e
       -0.1716111 -0.12746444 0.16913468 0.3363161
000040 ca 4d bd 3d d0 0c 24 be dc 39 03 3e 08 28 33 bd
       0.09243353 -0.16020513 0.1281504 -0.04373935

sequential_4_1/dense_12_1/MatMul f4 [20, 42]
000000 68 7a 9e 3d a4 aa 81 3e 9d c5 02 bf cd 0a 73 bc
       0.07738191 0.253255 -0.51082784 -0.014834118
000010 8b 87 b1 be 2a e0 3d be 8b 1a 08 bf ff 0c 7f bc
       -0.34673724 -0.18542543 -0.531655 -0.015567063
000020 cc 8b f1 be 2f a1 6b be a8 b7 d0 be 72 e1 7a be
       -0.4717697 -0.23010705 -0.4076512 -0.24500063
000030 ec 07 ef be 3e 56 1d be 8c 4e b5 bd e1 f3 2d bb
       -0.4668573 -0.1536493 -0.08852872 -0.0026543068
000040 c2 8f 68 be 06 0f cc 3d 95 73 8f bd 42 6f 84 3a
       -0.22711089 0.09963803 -0.070044674 0.0010103958
000050 c9 6d de 3c f1 4b 3b bd b8 9f e5 3e 4b ab 9f 3e
       0.027151959 -0.04572672 0.44848418 0.31185374
000060 9b 2a fa 3e f4 da 86 3e 91 18 fd 3e c9 4c b0 bd
       0.4886063 0.26338923 0.49432805 -0.086083956
000070 3f e5 89 3e be 93 8f 3d a6 1d d9 3e 0c 1f 58 3e
       0.26932713 0.070106015 0.42405432 0.21105593
000080 7d eb c1 3e bd 4b d4 3e 4e 09 0c 3e 7f bb 9b bc
       0.37874976 0.41464034 0.13675424 -0.019010304
000090 70 99 1c 3f 73 2b 25 bc be 68 08 3f 38 73 49 3e
       0.6117163 -0.01008116 0.53284824 0.19672859
0000a0 d9 53 2c 3f ec 53 8b 3e d8 37 10 be 00 fa 36 3b
       0.6731544 0.27212465 -0.14083803 0.0027920008
0000b0 67 2e 3b be 7d 53 ea 3d 9b 82 60 be f5 bf 45 3b
       -0.1827942 0.114417054 -0.21924822 0.003017423
0000c0 09 f4 ab bd 31 a4 20 3e 60 e6 9e 3d 42 e9 04 be
       -0.083961554 0.15687634 0.07758784 -0.12979606
0000d0 b7 f2 98 3d 26 bf 9c be e3 6c a1 3d 63 6d 6a be
       0.07468169 -0.30614585 0.078820966 -0.2289329
0000e0 2c 2b 22 3c 17 a0 6f be af 72 e9 bc f4 62 b3 bd
       0.009897988 -0.23400913 -0.028497068 -0.08759108
0000f0 42 00 82 3d fe 98 ed bd 70 8e 44 bd 31 cd 87 3d
       0.063477054 -0.116014466 -0.0479874 0.06630934
000100 0e 54 9f 3d c8 4c ca 3c 9b b8 b6 3d 7b b9 0a 3e
       0.07779704 0.024694815 0.089219294 0.13547318
000110 e3 b7 13 3f 0b c5 30 3d f5 df 2f 3f 65 44 20 3c
       0.57702464 0.043156665 0.68701106 0.0097819315
000120 2e 16 d8 3e 83 b2 89 3e 77 87 b3 3e 6e dd 8a 3e
       0.42204422 0.26894006 0.3506429 0.27122062
000130 10 45 0e 3f 93 dc 8c bd da 2b 20 3f 85 27 07 be
       0.5557413 -0.06878009 0.6256691 -0.13198669
000140 0d 13 2c 3d 37 f5 82 3e 66 60 c0 3d 1e 28 c7 3d
       0.042010356 0.2557771 0.093933865 0.097244486
000150 9e 71 3f be d8 13 62 3d 19 a1 d4 bd a6 49 ea bd
       -0.18695685 0.055194706 -0.103822894 -0.114398286
000160 49 e8 b3 bb 2a c5 14 3c 75 72 cd bd ab f3 32 be
       -0.005490337 0.009080211 -0.100315966 -0.17475764
000170 5c b6 03 bf 42 d3 cd be 8d 8a c0 be 82 2b 7c 3d
       -0.51450133 -0.4020024 -0.37605706 0.06156493
000180 57 81 ba be 3f e3 e6 bd 67 7e 80 be f4 93 bd 3c
       -0.36426803 -0.112738125 -0.25096437 0.023141839
000190 5e 8b e3 be 70 29 97 be 13 36 ce be 9e a3 8e be
       -0.44442266 -0.29523802 -0.4027563 -0.27859205
0001a0 46 3f 63 be 66 35 ac be 4b f8 29 3e f7 fa bc be
       -0.22192106 -0.3363449 0.16598623 -0.3691022
0001b0 d1 da a3 be 4d 55 f1 bd 4d 92 90 be 34 39 09 be
       -0.3200288 -0.11783848 -0.2823662 -0.13400728
0001c0 a7 90 81 3e 5c 66 85 be ff 7b 2e be d2 4c 88 be
       0.25305673 -0.26054657 -0.17039488 -0.2662111
0001d0 18 24 2b bd 69 d4 1c be b4 03 22 bd e7 ce da be
       -0.04178247 -0.15315403 -0.039554313 -0.4273598
0001e0 9f ee c3 3e 80 88 7c 3d bf 0c af 3d 68 04 cb 3d
       0.3826799 0.061653614 0.08547353 0.0991295
0001f0 34 db 4c 3e 2c 17 51 3e 52 7b 8e 3e c8 6b f6 3d
       0.20005494 0.20418996 0.2782846 0.120322764
000200 ba 1d 03 bf 7e ee 12 3f 09 f8 08 bf 9d f3 eb be
       -0.51217234 0.5739516 -0.5350347 -0.460843
000210 2e c2 cc be f6 88 0c bf a8 87 e2 be 95 44 1b bf
       -0.39991897 -0.54896486 -0.44244123 -0.6065152
000220 30 cc ec be 0f e8 7c bc 3c 32 e0 be 64 d6 29 bd
       -0.46249533 -0.015436186 -0.43788326 -0.041464224
000230 70 0f 3b be 25 0a c3 3c 28 da d3 3d cf 70 39 3e
       -0.18267608 0.023808548 0.103443444 0.1810944
000240 3a a3 de be c5 70 7b be 7e 08 4a be 2c a3 9b 3d
       -0.43483907 -0.24554737 -0.19729802 0.07599482
000250 a2 86 a8 bd fc 6e 05 3f 4b 39 07 be 4d 78 0d 3e
       -0.08228804 0.52122474 -0.1320545 0.13815422
000260 fc cb e5 bd 24 31 9e be 8b 24 99 be 66 c7 5e be
       -0.112205476 -0.30896866 -0.29910693 -0.21755752
000270 9c 24 87 3e 9f ed 01 3f e1 b9 ea 3e 11 fb fb 3e
       0.26395118 0.50753206 0.4584494 0.49214986
000280 8e de cc 3e 0a fb 48 be d2 48 b5 3e 52 5e 06 3d
       0.40013546 -0.19627014 0.3540712 0.032804795
000290 1a cb 15 3f 0a dd b1 3e dd 85 66 3e 02 52 96 3e
       0.58513033 0.34738952 0.22512002 0.29359442
0002a0 90 40 93 bc 50 67 b0 3d c5 97 02 3f de 6b dd bd
       -0.017975122 0.08613455 0.5101283 -0.1081159
0002b0 95 29 73 3e c1 09 d9 be a8 13 24 3f 0b 66 5d 3d
       0.23746331 -0.42390254 0.64092493 0.054052394
0002c0 40 36 e6 3e b5 c9 c7 bd 32 3f 5c be ea c4 6f 3e
       0.44963264 -0.097552694 -0.21508482 0.2341496
0002d0 bc ab e9 bd 71 7b 27 be bd 45 6c bd d5 17 00 be
       -0.11409709 -0.16355683 -0.057683695 -0.12509091
0002e0 45 70 ce 3b 80 d4 03 be af f8 5a 3e 57 66 3a 3e
       0.0063000047 -0.12874031 0.21383928 0.18203102
0002f0 cb 86 db be db b7 f6 3d 6d 24 fa 3c 67 57 61 bd
       -0.42876276 0.120467864 0.030534947 -0.055014994
000300 f0 81 ad 3d aa 51 97 bd e8 92 4e 3e f6 dd c2 3d
       0.08472049 -0.07388623 0.20173228 0.09514992
000310 ed ff 32 3b 1a 49 45 bd 95 c9 98 3d ea 17 39 be
       0.0027313188 -0.04816542 0.07460324 -0.18075529
000320 8a 6a d1 3e 35 2f a0 bd 4d e6 25 bb 55 b0 c2 3d
       0.40901595 -0.07821504 -0.0025314272 0.09506289
000330 66 88 40 3e 86 bb 14 bd f2 48 39 3e a2 2f 01 3a
       0.18802032 -0.03631165 0.18094233 0.00049280573
000340 4f ae 33 3e fc f7 2c be 48 fa 43 3e b4 e2 91 3e
       0.17546962 -0.16891474 0.19138443 0.28493273
000350 47 5c 5a be 4f d6 72 be aa c6 88 3e 13 7c 34 3e
       -0.21324264 -0.23714565 0.2671407 0.17625456
000360 24 2d 52 3e 04 3e ad 3d 96 dd 3c be 70 38 12 3e
       0.20525032 0.08459094 -0.18443903 0.14279342
000370 8c 66 2a bd e1 aa 1b be 4a cc 60 be 75 2c 02 3e
       -0.041601703 -0.15201904 -0.2195293 0.12712272
000380 f2 c3 42 3e 4d 1a 97 3e e3 05 86 3e 5a 26 01 be
       0.1902006 0.29512253 0.26176366 -0.12612286
000390 55 4d bd bd 66 4f a3 3e fb b5 53 be fb 2b 02 3e
       -0.092432655 0.31896514 -0.20674889 0.1271209
0003a0 db 8e 81 3e a2 46 ea 3d 2e ec ea bd 18 9a 23 ba
       0.25304303 0.114392534 -0.11470829 -0.00062409183
0003b0 1f 5c 72 be ac 1d 60 3e 3b 0c 96 3d e7 0a 0c 3e
       -0.23667954 0.21886319 0.073265515 0.13676034
0003c0 94 16 8b 3e f7 1a 37 be 21 ed 62 3e 0c 74 9c bd
       0.27165663 -0.1788138 0.2216077 -0.07639322
0003d0 1e 11 57 3e 3c 7f 92 3e fc 13 bb bd ce b0 97 3e
       0.21002623 0.28612697 -0.09134671 0.2962708
0003e0 7c 9a ab bd e5 fa 3f 3e ea 36 25 3e 4f 63 94 3d
       -0.08379075 0.18748052 0.1613423 0.07245504
0003f0 dc 3b b4 3d e0 6d 4c 3e 53 4f 1d bc 0d b8 8f bc
       0.0880048 0.19963789 -0.009601432 -0.017543817
