backend/model/keypoint_classifier/keypoint_classifier.tflite (tflite, 7540 bytes, 6 tensors)

arith.constant f4 [26, 10]
000000 83 f2 7a be 2d e7 7d be e0 75 88 3e 6a ba 94 3e
       -0.24506573 -0.24795218 0.2665243 0.29048473
000010 3e 56 97 be 37 38 bb be 3f 2b 4a 3d bd 0f 3d be
       -0.29557985 -0.36566326 0.04935765 -0.18463035
000020 4d df 04 3f 71 dc 2f 3e d2 5e dd 3e 73 fb a4 3e
       0.5190323 0.17173935 0.43236405 0.3222309
000030 5a 2f b9 3d 51 de a6 3e db 07 0c bf 29 fd f8 be
       0.09042235 0.3259149 -0.54699486 -0.48630646
000040 1c c4 3b bf 76 56 6b 3e e9 af ee be 59 3f 88 3e
       -0.73346114 0.22982201 -0.46618584 0.2661083
000050 fa b5 2d 3e 4b 71 74 bf d5 d4 46 3e 9e e8 88 3e
       0.1696395 -0.9548537 0.19417126 0.26739973
000060 bc 07 20 bf 0b 21 2b 3f 19 17 54 bf 78 ab d2 3e
       -0.625118 0.66847295 -0.82847744 0.41146445
000070 cf fc 36 be 04 b2 1e 3f 29 1d 06 3f a3 16 c3 be
       -0.17869876 0.6199038 0.52388245 -0.38103208
000080 49 d9 95 3e 07 95 41 3d f1 a9 dc 3e 3d 73 e1 be
       0.29267338 0.047261264 0.43098405 -0.44033232
000090 44 3c 82 bf bf 4d 8e 3e 40 be 9e be 16 04 85 3e
       -1.0174642 0.2779369 -0.31004524 0.2597968
0000a0 b6 ca c2 3e 1e 19 9a 3e 7e 71 a4 bd 94 b6 5a 3e
       0.3804528 0.30097288 -0.080294594 0.2135871
0000b0 a5 f6 fd be 51 85 92 bf e1 4a 83 be 67 64 44 3e
       -0.49602237 -1.1446935 -0.25643066 0.19178925
0000c0 ce 9d a0 ba 07 c9 01 3e 17 46 03 be 4c 5b 4a 3e
       -0.0012254061 0.12674342 -0.12819706 0.1976139
0000d0 65 cc 1c bf c0 74 1d bf 14 f6 94 be df 88 f8 bd
       -0.6124938 -0.6150627 -0.29093993 -0.12135481
0000e0 81 d5 8b bf 39 66 89 bd fd 30 02 3d 2f d5 8a 3f
       -1.0924531 -0.067089505 0.031785 1.0846308
0000f0 ae ba 9d be 64 40 91 bf 6a 8c 2b 3f 9f 04 19 3f
       -0.30806488 -1.1347775 0.6701113 0.59772676
000100 c2 7b c8 be eb 2a ae 3d f1 57 30 bf 0a ba ab 3d
       -0.3915692 0.0850428 -0.6888419 0.083850935
000110 f7 1c 18 3f fe 7b 35 bf 93 2b 79 bf 90 dd 8d bf
       0.59419197 -0.7089232 -0.97332114 -1.108324
000120 db 25 bc 3e 67 32 82 3e f6 8e 5b bf f7 00 0e be
       0.3674763 0.2542908 -0.85765016 -0.13867556
000130 12 8a 6c 3e 42 92 db 3e 1e 93 e3 3e 2e a8 47 bf
       0.23099545 0.42885023 0.4444818 -0.77990997
000140 10 1c fe 3e f8 b4 3a be 80 9d 47 bf f9 01 25 3e
       0.49630785 -0.18233097 -0.779747 0.16114034
000150 a0 e8 a0 be 4e ef 2b bf 74 85 b2 3c 4b 0b bd 3e
       -0.3142748 -0.67162025 0.021792151 0.36922678
000160 b2 9e dd 3e 1b a1 07 be 3a c7 a9 3e 68 d3 72 bd
       0.43285137 -0.1324505 0.3315981 -0.059283644
000170 2e e2 57 bf 25 a0 0d 3f 95 e5 c7 be dd f5 0c bf
       -0.843295 0.55322486 -0.39042345 -0.5506266
000180 ff 6d 69 3b 0a 8a 04 3f ab 2f 51 3e fa 20 9a be
       0.0035618541 0.5177313 0.2042834 -0.30103284
000190 93 04 49 bd b9 2c 19 3e de e6 7e be a7 6b 89 be
       -0.049076628 0.14958467 -0.24892756 -0.26839945
0001a0 06 4b 85 3f 2b c7 c8 3e 5a d7 69 bf 6c d5 9d bf
       1.041352 0.39214453 -0.91344225 -1.2330756
0001b0 dd 8e a9 be ce 36 36 bf 1a d9 b2 be 8f 80 92 bf
       -0.3311681 -0.71177375 -0.3493126 -1.1445483
0001c0 19 b2 10 3f 7d d8 84 bf 5a f9 53 3e c3 72 ad 3e
       0.56521755 -1.0378567 0.20700589 0.3387662
0001d0 52 fc e4 be d7 2a 0c 3f 20 76 f2 be 0d ea e7 3e
       -0.44723755 0.5475287 -0.47355747 0.45295754
0001e0 b7 d2 ae 3e fd 0f b5 3e ba fc 44 3e b1 bd 6f 3e
       0.34145138 0.3536376 0.19237033 0.23412205
0001f0 af 7a 79 3d 36 05 4a bf 13 a3 12 bd ba 7e a6 be
       0.060908016 -0.789142 -0.03580005 -0.3251856
000200 2d 57 7a bd 18 1d ff be 05 a2 65 3e e1 6d 01 3f
       -0.061118294 -0.49826884 0.22425087 0.50558287
000210 75 f7 63 b9 79 c9 98 bc d0 97 41 3e e0 b6 20 bf
       -0.00021740592 -0.018650757 0.18905568 -0.62779045
000220 44 48 22 3e f5 a0 bc be 1f ea 9d bd b6 c6 96 bf
       0.1584788 -0.3684155 -0.07710671 -1.1779392
000230 72 c0 aa bd 33 a2 8b 3e 8d 78 33 bd 37 31 11 3f
       -0.08337487 0.27272186 -0.043816138 0.5671572
000240 08 95 1c bf 95 fd ef be 8f 50 ae be fc 2d 6d 3e
       -0.61164904 -0.46873155 -0.34045836 0.23162073
000250 f4 9a 41 3d 8c d7 62 3e 15 34 4a bf 63 70 a9 bf
       0.047266915 0.22152537 -0.7898572 -1.3237423
000260 11 21 3b 3f fa 41 05 bf 91 ef 8a bd 64 71 ab 3e
       0.7309733 -0.520538 -0.06783975 0.33484948
000270 48 12 13 3f e3 2c 64 bf 52 31 35 be ca a9 d5 bd
       0.5744977 -0.8913099 -0.17694595 -0.10432775
000280 cd 54 41 bf 01 27 3e bf 3d 14 74 bf a1 ac c3 be
       -0.7552002 -0.74278265 -0.9534338 -0.38217643
000290 4a 69 7c be 49 88 e2 3e a0 94 24 3f 09 19 9e bf
       -0.2464954 0.44244602 0.64289284 -1.235139
0002a0 0f 04 48 3e 5f e1 e8 3d d5 76 2e 3f 17 91 de 3e
       0.19532798 0.11371111 0.68150073 0.4347007
0002b0 1f 20 c6 be f3 dc 3b bf c4 90 04 bd 34 c0 65 be
       -0.3869638 -0.73384017 -0.03236462 -0.22436601
0002c0 27 06 c7 be a7 af 59 3e 1a d3 d8 bf ec da a9 3d
       -0.3887188 0.21258412 -1.6939423 0.08293709
0002d0 3e 91 f0 3c 61 1d a5 3e 14 1c 89 3c 27 70 08 3e
       0.029366132 0.32248977 0.016737022 0.13324033
0002e0 a9 9c 9a be a8 a0 53 be 18 7b 7d 3e ea 8d 8c 3d
       -0.30197647 -0.20666754 0.24753988 0.068630055
0002f0 7f c5 48 3e 4c 6f 2d bf 8c 63 26 3d 18 c9 02 3d
       0.19606589 -0.6774795 0.04062228 0.03193006
000300 12 5e a6 3c 8f d5 56 be 65 ff 10 3d 6a c4 38 bf
       0.020308528 -0.20979904 0.035399813 -0.72174704
000310 45 cb 87 3e ba a9 c7 3b 8d ad e5 3e e2 48 cc be
       0.2652227 0.006093231 0.4485897 -0.39899355
000320 46 44 1d 3f b6 eb 96 3e 9c c6 01 be 14 54 9d be
       0.614323 0.29476708 -0.1267342 -0.3072821
000330 c9 5e 89 3d d9 92 c2 3e e7 ef 16 bf d5 46 e6 3d
       0.06707532 0.3800266 -0.5895981 0.11243979
000340 ec d8 ae bf 29 75 af be c7 e5 e8 3e e4 e1 57 3e
       -1.3659949 -0.34269074 0.45487806 0.21082264
000350 e1 b8 e4 be 2e 12 80 bf cf c8 34 3e 00 6c 73 3f
       -0.446723 -1.0005548 0.17654727 0.9508667
000360 2a 65 97 3b cc 89 f5 3c 81 3f e4 bf 24 86 e6 be
       0.004620214 0.029972933 -1.783188 -0.45024216
000370 ad fe b2 3e 00 5e 3f 3f 67 58 cf bb 8a 59 b9 be
       0.34959927 0.7475281 -0.006327677 -0.36201125
000380 dd 46 e1 be 4d 28 e1 be 26 28 5c bf e2 2d a9 3e
       -0.43999377 -0.4397606 -0.8599876 0.33042818
000390 33 98 f0 bf e7 d9 18 3f ea fc 87 be 1b e7 00 bc
       -1.8796448 0.5970749 -0.26560146 -0.0078676
0003a0 5b 61 8c 3e c4 0b 4b bf 99 12 34 3f 6a e9 1f 3d
       0.27418026 -0.7931483 0.7034088 0.03904096
0003b0 d8 a0 93 be 76 36 6f bf 14 86 1b bf 0a 07 4d 3d
       -0.28833652 -0.93442476 -0.6075146 0.05005554
0003c0 99 81 fa be ed dd e6 bd d6 1b 4c be 5f e0 25 3f
       -0.48927 -0.11272798 -0.19932494 0.6479549
0003d0 75 5e a1 3e f5 33 5d bf e1 da 2e bf 54 ef 3d bf
       0.31517377 -0.86407405 -0.6830273 -0.7419331
0003e0 53 5c ee 3e c4 14 0c 3f db ef b4 bd 1d ea 66 bf
       0.46554813 0.54719186 -0.08834811 -0.9020098
0003f0 9e ec 07 3f a2 13 7e bf d6 e6 09 3f b5 d3 bd bd
       0.53095424 -0.9924871 0.5386785 -0.092688955

arith.constant1 f4 [10, 20]
000000 20 64 6b 3e bd c2 40 bf a7 cf c7 bd af d3 7e be
       0.22987413 -0.7529715 -0.097564034 -0.24885438
000010 b1 c2 74 be 67 f2 58 3f 2d 21 13 3f e7 03 38 bf
       -0.23902394 0.84744877 0.574725 -0.71880955
000020 36 2f fc 39 69 e9 a3 3e 24 1c 9f be 4d 2a 59 3f
       0.0004810036 0.32014015 -0.31076157 0.8483017
000030 c7 8f ff bd ce e6 86 bf 43 ba 22 3f 4e df 38 be
       -0.12478595 -1.0539186 0.6356546 -0.18053934
000040 64 5e b7 3e 62 e7 23 3f 7a 7a c2 3e 89 0c 0b 3f
       0.35814202 0.6402494 0.37984067 0.54316
000050 7a 0b bb 3f f6 ad 22 bf ff 87 8a 3e 91 3a 79 be
       1.4612877 -0.63546693 0.27056882 -0.24338748
000060 73 a8 ae be ca 71 05 3e 5d b2 a6 3f 6e 7f 0c bd
       -0.34112892 0.13031688 1.3023182 -0.034301214
000070 74 ff 9e 3f cd 73 7a 3e 8d a3 37 bf f3 90 ae 3e
       1.2421708 0.24458237 -0.71733934 0.34094962
000080 86 0e 0e 3d 20 c1 1d bf de 92 20 3e b6 9d 19 3e
       0.03468182 -0.6162281 0.15681025 0.15001568
000090 47 67 1a 3e 02 dd b1 3f 50 3e ba 3e 2c 4c 4f 3f
       0.1507846 1.3895571 0.36375666 0.80975604
0000a0 8d be 7c 3e 15 4f 10 bd 8c af 87 be a7 86 02 3e
       0.24682064 -0.03523167 -0.2650112 0.12746678
0000b0 d5 e0 6d 3e 31 90 c7 be b5 97 b9 be 1d 0f 91 3f
       0.23230298 -0.38977197 -0.36248556 1.1332737
0000c0 c3 70 66 be f6 d2 0e 3f 05 60 2e 3f 45 db 39 be
       -0.22503953 0.5579065 0.68115264 -0.18150051
0000d0 46 79 8a 3e 59 48 50 3d 9a 7a 5c 3f 79 ff 45 3f
       0.2704565 0.050850246 0.86124575 0.77342945
0000e0 0c ce 5a 3f a3 0a 9c 3e d2 da 43 3f f6 d8 6f 3f
       0.8547065 0.30476865 0.7650577 0.9369043
0000f0 64 3e 92 3d 1d 5b a6 bd 17 43 69 bf 1a 35 d1 bc
       0.07140806 -0.08122847 -0.91117996 -0.025538016
000100 fc fc 19 bf fa c4 48 3f 12 c9 08 bf 1c 57 ad 3e
       -0.6015165 0.7842556 -0.5343181 0.33855522
000110 9c 1e 77 3e 33 b4 72 3f 53 cd 91 3e 01 b7 39 3f
       0.2413277 0.9480621 0.28476962 0.72544867
000120 fd b2 18 3f d9 84 ce bd 57 7c ad be 57 3f fc 3e
       0.59648114 -0.100839324 -0.33883926 0.49267074
000130 97 54 10 3f 42 bd b2 3e 06 c0 ec 3e cc 63 29 be
       0.56379074 0.34910017 0.46240252 -0.16541976
000140 2f d7 e7 3e 2d 48 7a bf 79 75 59 3f f6 ff c4 3e
       0.4528136 -0.9776638 0.84944874 0.38476533
000150 31 c2 80 3f e1 46 85 be c4 4f 49 3f 5b 7b dc be
       1.0059263 -0.2603064 0.7863734 -0.43062863
000160 1e 75 09 3f c6 8e ad 3d 25 ff 76 3f 9c 28 3b be
       0.5369433 0.084744975 0.9648307 -0.1827721
000170 1b 4c 86 be 7a fd 2a bf 69 c9 93 3f a3 9a 52 3f
       -0.2622994 -0.66793025 1.154584 0.82267207
000180 4f e4 f7 3c ab fc 2f bd 72 9c b6 be c4 2c 35 3f
       0.030260233 -0.042965572 -0.35666233 0.7077143
000190 bc b5 06 3e e2 fb 38 bf 48 47 ac 3f a8 30 cc 3e
       0.13155264 -0.7225934 1.3459253 0.39880872
0001a0 77 f9 e0 bb 55 90 3f bd 7e 8b 11 3f 20 52 94 bf
       -0.006865676 -0.046768505 0.56853473 -1.1587563
0001b0 e6 80 84 be 00 3f 9e be f5 09 1e bf 8e 6c 82 3d
       -0.25879592 -0.3090744 -0.61733943 0.063683614
0001c0 7f dc 61 3f 71 7e b8 3e b0 db 79 3e 7a 98 e3 3e
       0.88227075 0.36033967 0.2440021 0.44452268
0001d0 29 74 78 3e 84 d7 68 be ab f9 46 3e 4f 83 6a bc
       0.24263062 -0.22738463 0.19431178 -0.014313533
0001e0 a3 4f ca 3e 90 60 a8 3f 60 a9 26 bf 97 21 68 3f
       0.39513883 1.3154469 -0.65102196 0.90676254
0001f0 ce 0e 07 3f 6c 76 9e be 61 4d 01 bf 7f 23 22 bf
       0.52756965 -0.30949724 -0.50508696 -0.6333541
000200 92 e0 26 3e 81 3a f7 3e fb f5 cc be 49 17 86 be
       0.16296604 0.48286822 -0.40031418 -0.2618964
000210 09 58 02 3f d4 19 93 3f 0a cb 8f 3e a1 c1 e8 3e
       0.5091558 1.1492257 0.28084594 0.45460227
000220 39 d2 de 3e 99 0e 37 3f 0f 78 f1 be a8 3f cd 3e
       0.43519762 0.7150665 -0.4716191 0.40087628
000230 47 ad 01 be 2e 02 d5 bc 95 0e a4 bd 64 1c 03 3e
       -0.12663756 -0.026002016 -0.08010594 0.12803799
000240 55 65 31 be 16 ce 05 3f a3 37 87 be 0c 5a 0c 3f
       -0.17323811 0.5226759 -0.26409635 0.548249
000250 2d b3 23 bc 02 43 9b 3e 9b 48 83 bf 45 27 60 3f
       -0.009991449 0.3032456 -1.0256532 0.8755992
000260 eb 02 1d be a8 27 57 3c 44 4e d3 bd 60 35 fe 3e
       -0.15333144 0.013132013 -0.10317662 0.49650097
000270 e6 62 5c 3f 33 cc dc 3c bf ae b2 3e bf 53 f2 3d
       0.8608841 0.026952839 0.34898946 0.118323795
000280 2c a5 af 3e 28 5e 14 be d5 8b f4 bd 83 8b 19 3f
       0.34305704 -0.14489043 -0.11940733 0.59978503
000290 53 f7 64 3f 8b 57 0c 3f 79 1a 7d be 1d 14 a8 3e
       0.89439887 0.5482108 -0.2471713 0.32827845
0002a0 0e d5 d2 3f 60 40 88 3f ba 73 51 3e 25 b7 a1 3e
       1.6471269 1.0644646 0.20454302 0.3158504
0002b0 b0 1c 82 3f 06 6c 64 3e 00 d3 d9 3d cd a9 42 3f
       1.0165005 0.22306833 0.10635948 0.76040345
0002c0 7c 3d bf 3e 16 5f bf 3e 06 d8 a3 3d b5 d8 42 be
       0.37351596 0.37377232 0.080001876 -0.1902798
0002d0 c3 5a f8 3e 0a b2 fa be c9 08 27 3f 3a c8 a6 3f
       0.48506746 -0.48963958 0.6524778 1.3029854
0002e0 4b a9 89 3f 1f fe 92 3f fd f8 3b 3e f4 13 9e 3f
       1.0754789 1.1483802 0.183567 1.2349839
0002f0 a1 2f 97 3e 36 f2 46 be e7 7c 95 be dd b9 88 3f
       0.29528525 -0.19428334 -0.29196855 1.0681721
000300 6f ee 1b be c6 5d 6c bf c2 72 c1 bd 7d 39 94 bd
       -0.15227674 -0.92330587 -0.094457164 -0.072375275
000310 2e a2 15 3e e9 0c af 3e c0 45 bc 3f 4a 8e 21 3d
       0.14612648 0.34189537 1.4708786 0.039442338

arith.constant2 f4 [26]
000000 48 71 64 bf c4 91 03 be 93 84 9a be a0 5c e3 3e
       -0.89235353 -0.12848574 -0.3017927 0.44406605
000010 fd 55 bd be 4b a5 cd 3d 99 74 e1 3c 00 64 84 3d
       -0.36979666 0.10041293 0.027521418 0.06464386
000020 8f 79 07 3f 3f f1 b7 3e 36 cb 56 be a0 70 27 3e
       0.5291986 0.35926244 -0.20975956 0.16351557
000030 1f ad d5 be 78 5b 00 bf 8b 86 1a bf a1 e7 ff bd
       -0.41733643 -0.5013957 -0.60361546 -0.124953516
000040 3c cb 93 3d 12 78 28 3f cd 47 96 be 06 24 a3 be
       0.07216498 0.6580821 -0.29351655 -0.3186342
000050 4a 6f 7d 3e fd 66 cd 3e 20 7d fc 3d 2d a7 ba 3e
       0.24749485 0.40117636 0.12328553 0.3645567
000060 65 7f 51 bf 3b 08 82 3f
       -0.81835014 1.0158762

arith.constant3 f4 [10]
000000 f1 cc a2 3f 2c 6a 1c 3f 1f 1e 08 3e 03 cb 35 be
       1.2718793 0.61099505 0.1329274 -0.17753224
000010 01 b1 73 3f a8 8c 47 3f e2 4b 36 3f 12 78 a8 3f
       0.9519196 0.77949 0.7120954 1.3161643
000020 b5 e5 5d be 05 d4 0c 3e
       -0.21669658 0.13752754

sequential_5_1/dense_15_1/BiasAdd/ReadVariableOp f4 [20]
000000 03 58 4c bf 62 9e 43 3f d1 c9 f5 3e 23 f1 b7 3e
       -0.79821795 0.7641355 0.48005536 0.3592616
000010 9e f9 91 bd ed 56 92 bd fa a5 8d 3e f1 ef 13 bf
       -0.07127689 -0.07145486 0.27665693 -0.57787997
000020 99 de 6d bf b9 22 66 bf db db c8 3d 52 6d 64 bd
       -0.9291778 -0.8989673 0.09807559 -0.05576832
000030 03 dd a0 bd 37 63 30 3f 28 1c df 3e fb 2a 0c bf
       -0.07854655 0.6890139 0.4357617 -0.54753083
000040 58 98 17 bf ad 85 50 bf 7f 0b 8f be 89 68 97 3c
       -0.59216833 -0.81453973 -0.27938458 0.018482463

sequential_5_1/dense_15_1/MatMul f4 [20, 42]
000000 98 c1 70 3d 3c 68 7c 3e 79 af ef bd 77 3b fa 3c
       0.058778375 0.24649137 -0.11703391 0.030545933
000010 43 f6 1b 3e 4b 0f 9a be e8 b8 03 3f b3 89 c5 be
       0.1523066 -0.30089793 0.5145402 -0.3858162
000020 80 a4 1e 3f 5f 35 e6 be c3 02 cf be e2 2f 85 3d
       0.6196976 -0.44962594 -0.40431795 0.065032735
000030 97 bd b9 be af 0c 09 3d 2b 61 f3 be 32 0b 21 3e
       -0.36277458 0.03345936 -0.4753507 0.15726927
000040 69 d8 8c be 54 23 af 3e 68 b6 1d bf 25 21 9b 3c
       -0.27508858 0.3420664 -0.61606455 0.018936703
000050 66 1c ed be e1 28 26 be bc df b9 be 53 c7 bf be
       -0.4631073 -0.16226532 -0.36303508 -0.3745676
000060 aa 1f 0e 3e 27 e5 e3 be d4 7e 90 3d cd 9a 0d 3c
       0.13879266 -0.44510767 0.070554405 0.008642864
000070 fe 1f a3 3e ad a8 1b be b9 3d 3c 3f 54 15 e1 be
       0.31860346 -0.15201063 0.7353168 -0.43961585
000080 d1 df b0 3f fe af 32 bf d6 31 ba 3e 03 52 0a 3e
       1.3818303 -0.6979979 0.36366147 0.13507847
000090 7c 9f b2 3e fc 49 77 3e 7f 37 0a 3f 83 f9 a8 3e
       0.34887302 0.24149317 0.5399093 0.33002862
0000a0 be 28 8b 3f aa fe c7 3e 75 73 8e be 63 bd 81 be
       1.0871809 0.3906148 -0.27822462 -0.25339803
0000b0 c4 11 41 bc aa 1e b2 3e 0f 27 bb bd eb 2a 98 3e
       -0.011784021 0.3478902 -0.09138309 0.29720244
0000c0 e0 92 ff bd 1f 81 d9 3e ca ac 24 3c 2d a4 2e 3f
       -0.12479186 0.42481324 0.010050962 0.6821926
0000d0 c0 bc 7a bf 95 0c 83 3e ab 1e b3 be 28 fb da 3e
       -0.9794426 0.25595537 -0.34984335 0.42769742
0000e0 fa ed 63 be 40 71 3e 3e 9a 23 06 be e7 d3 01 3f
       -0.2225875 0.18597889 -0.13099518 0.5071396
0000f0 13 e5 34 bf 0f 2a 09 3f 6b c0 ba be a4 bf 00 3f
       -0.7066204 0.535798 -0.36474928 0.5029242
000100 a5 11 25 bf 40 78 f6 3e 90 6a 1f bf c8 32 b0 3e
       -0.6448005 0.48138618 -0.62271976 0.34413743
000110 15 d4 72 be 37 85 34 3f b7 ea bf bd 91 c6 86 3f
       -0.23713715 0.7051577 -0.0937094 1.0529348
000120 ed 82 8c be e9 30 56 3f a3 fb 91 bd a8 a1 51 3f
       -0.27443638 0.8366838 -0.07128074 0.8188729
000130 b7 53 9e be 8a 67 9f 3f be 3b 30 bd 72 d7 8b 3f
       -0.30923244 1.2453473 -0.043025725 1.0925124
000140 3a da 3b 3e 62 d5 79 3f 1a ec 6d 3e 4a b4 50 3f
       0.18344966 0.9759122 0.23234597 0.815251
000150 e6 a5 30 be b0 08 f6 3c e2 21 fe 3e e7 75 72 3f
       -0.17250785 0.03003344 0.49635226 0.94711155
000160 b1 0b 27 3e 04 6b a4 3e 4e ed 77 bd 57 52 44 3e
       0.16313054 0.32112896 -0.060529046 0.19172035
000170 c1 40 22 bf 7c 75 e6 3d 06 9f 40 3e cd 23 0e 3e
       -0.63380057 0.11252877 0.18810663 0.13880844
000180 33 1c 2d be 41 31 8f 3d af eb 08 bf e9 85 06 bd
       -0.16905288 0.06991816 -0.53484625 -0.03284255
000190 08 62 3d bf 45 f8 9a bd c5 c0 5e 3e 5f fa e2 3d
       -0.7397771 -0.07566885 0.21753223 0.11082911
0001a0 07 5a 61 3f c2 43 c6 bc 6f cd 83 3f 72 a0 85 be
       0.88027996 -0.024202231 1.0297068 -0.26098973
0001b0 c7 95 b6 3f b9 dd 06 bf 47 3e 45 3d 39 29 dd 3d
       1.4264458 -0.5268207 0.048155095 0.10798878
0001c0 da 08 ef 3e 36 88 d7 3d 73 ac fa 3e 10 8f c2 3d
       0.4668644 0.10524027 0.48959693 0.09499943
0001d0 d0 26 0d 3f e3 9b c1 3c 8c d1 2d be bc e2 2e 3e
       0.5513735 0.023633903 -0.16974467 0.1707868
0001e0 ea e0 38 be be 93 b7 3d c9 4d 5a be 21 76 e1 3d
       -0.18054548 0.089637265 -0.21318735 0.110088594
0001f0 87 7f 43 bd 99 bb d6 3d 78 3d 28 bd 04 c9 27 3e
       -0.04772904 0.10485 -0.041074246 0.16385275
000200 9f b3 08 bf 15 d9 bf 3f 1c 74 00 bf b1 60 24 3f
       -0.5339908 1.4988123 -0.5017717 0.6421004
000210 fa 52 6e bf b7 c1 c1 3e 35 a1 b5 bf d8 9e a8 3e
       -0.9309536 0.37843105 -1.4189821 0.32933688
000220 87 3a b2 be 1e 3f bf 3d 9e 85 59 be 3c bc da 3d
       -0.34810278 0.093382105 -0.21242377 0.10680434
000230 c9 f2 c7 bc 13 dc f2 3d 87 55 17 be 5e dc 1e 3e
       -0.024407761 0.11858382 -0.1477872 0.15513751
000240 1c 5c 44 bf eb 42 c1 3d 4e 1a ed 3e 41 57 1b 3d
       -0.7670305 0.09436592 0.4630913 0.03792501
000250 7c bd 86 3e 59 db 7f 3d 10 02 da be 9f 5d 8b bd
       0.2631644 0.062465046 -0.425797 -0.06804966
000260 79 9f b4 bc ea af 20 3c d7 0a 73 3f 56 5c 8f 3d
       -0.022048699 0.009807566 0.94938415 0.070000336
000270 6a 57 b8 3e 4e de c4 3d a7 d2 18 be a9 2c 80 3d
       0.36004192 0.09612714 -0.14924107 0.06258518
000280 b6 70 b4 3e f3 ba 5c 3c 15 7e 53 3f 51 fa d2 3d
       0.35242242 0.013472307 0.8261426 0.1030165
000290 87 93 34 3f d4 9b 56 3e 3f 94 e2 3e 28 d6 fd 3d
       0.7053761 0.20957881 0.44253728 0.12394363
0002a0 90 b0 ce 3c 2c 17 82 3e 09 5b 0d 3d be 9b 9c 3e
       0.025230676 0.25408304 0.034510646 0.30587572
0002b0 c7 67 d3 bd d4 eb bf 3d 50 86 49 bf 09 21 96 3c
       -0.10322528 0.093711525 -0.7872057 0.0183263
0002c0 12 a7 ba bf ed be 86 bd 5a 7f 31 be ea 20 b2 3d
       -1.4582236 -0.06579385 -0.17333737 0.08697684
0002d0 df 87 63 be 6f 4e a3 3c 0d f3 2b be 00 ab 31 3a
       -0.222198 0.019934861 -0.16791935 0.0006777495
0002e0 8a 2d 91 bd e5 55 03 bc 6c 41 3e 3e a1 65 c9 3c
       -0.07088764 -0.008016084 0.18579644 0.024584593
0002f0 0b 3b 2e 3f b0 c6 89 3d 9c d6 f5 3e 76 97 34 3e
       0.6805884 0.0672735 0.48015296 0.17635903
000300 36 da 0c 3e 28 cb 21 3e 6b cb 08 3f fd 15 2e 3d
       0.13755116 0.15800154 0.5343539 0.04250144
000310 bc 78 37 3f 28 47 33 3d a5 81 a0 3f b4 de 25 3d
       0.716686 0.04376903 1.2539564 0.04049559
000320 03 6a a9 3f 90 cf 8e bd 4e 89 9c 3e a0 6b 40 3d
       1.3235477 -0.06973183 0.30573505 0.04697764
000330 a0 d6 f6 3e e6 0e b4 3d 58 de 3f 3f 79 81 3b 3d
       0.4821062 0.08791904 0.74948645 0.04577777
000340 3b 1a 17 3f 69 92 a1 3d fc 0f 99 bd 7a ad 8e 3e
       0.590244 0.07889254 -0.07473752 0.27866727
000350 69 89 cc 3e 57 18 52 3f a0 5e e1 3c 8e aa be 3e
       0.39948586 0.8206839 0.027510941 0.37239498
000360 cb 05 96 bd 3e d0 77 3e f8 1f 30 be 9d 6a 82 3e
       -0.07325324 0.24200532 -0.17199695 0.25471964
000370 51 0c ce 3e d3 32 9c 3d 1c 02 b0 3e 3b 64 d0 3d
       0.40243772 0.076268815 0.3437661 0.101753674
000380 48 d6 3e 3e aa d2 b6 3d ee 99 6c 3e ea ec c5 3d
       0.1863643 0.089269 0.23105595 0.096643284
000390 8f 08 36 3f be 0f 4b 3d 7a 01 8d 3e ea d1 12 3d
       0.7110681 0.04957556 0.2754019 0.03584472
0003a0 fe 38 61 3e a2 d1 b5 bd bf 7e 35 be 9a e3 35 be
       0.21994397 -0.08877875 -0.17724131 -0.17762604
0003b0 b7 2a 08 bf 07 5a ce 3d 4d 5a b1 bd 65 ee 45 3d
       -0.5319018 0.10075765 -0.08659802 0.048323054
0003c0 57 87 5a be f9 cb 8b be cb 95 8d be ca df e3 be
       -0.2134069 -0.27304056 -0.27653345 -0.44506675
0003d0 b4 3a 0d bf f5 fb 42 bd 82 2f 1a be 56 e7 d8 bd
       -0.551677 -0.047603566 -0.15057185 -0.10590999
0003e0 98 4c 48 3e 22 de 2a bf 37 c7 0b be 8b a2 ad bf
       0.19560468 -0.667452 -0.13650213 -1.3565229
0003f0 52 30 8e 3e 10 ba 61 be cd ee de 3e 29 cf d9 3e
       0.2777124 -0.22043633 0.43541566 0.42540863
